assignment1/ex1/results/model/CartPole-v0_params.pt (torch, 13441 bytes, 11 tensors)

fc1_a.weight f4 [32, 4]
0	0x3c2bc802	0.010484697
1	0xbd987f54	-0.07446161
2	0xbee0ff42	-0.43944746
3	0xbe82452e	-0.25443405
4	0x3cc7e44f	0.024400858
5	0x3cd8e1be	0.02647483
6	0xbe9724dc	-0.2952031
7	0xbe060322	-0.13087133
8	0x3e05dd0d	0.13072605
9	0xbdd1098a	-0.102068976
10	0x3d935cda	0.071954444
11	0xbb9f7245	-0.004865917
12	0x3d3db31b	0.046313386
13	0x3c02a088	0.007972844
14	0x3e79cb07	0.24393855
15	0x3de9f6d4	0.11424032
16	0x3e35eae3	0.17765383
17	0xbdf28d52	-0.11843361
18	0xbe1f4219	-0.15552558
19	0xbe627200	-0.221138
20	0xbd221e02	-0.0395794
21	0xbd634bf1	-0.055492345
22	0xbf02a4f9	-0.5103298
23	0xbe950f6e	-0.29113334
24	0xbe20fcf4	-0.15721494
25	0x3e0c0233	0.13672714
26	0x3e760f7d	0.24029346
27	0x3d59e9ea	0.053201593
28	0xbdb53b0a	-0.088491514
29	0x3ce78d55	0.028265635
30	0x3f0db522	0.5535451
31	0x3de65ce8	0.11248189
32	0x3de3d88d	0.11125288
33	0x3d906ff8	0.07052606
34	0x3d8618ad	0.06547675
35	0x3d90599a	0.0704834
36	0x3de2eedf	0.11080717
37	0x3c7de9b7	0.0154976165
38	0x3ef64df5	0.48106351
39	0x3e52d1c5	0.20587833
40	0xbd00d7eb	-0.031455915
41	0xbb9bfdca	-0.0047604786
42	0xbec35b95	-0.3815581
43	0xbe0252e2	-0.1272693
44	0xbc8e8250	-0.017396122
45	0x3e0569e2	0.13028672
46	0x3eac0c14	0.33602965
47	0x3e863bda	0.26217538
48	0xbe9285e8	-0.28617787
49	0x3e25eeee	0.16204426
50	0x3e85dc51	0.2614465
51	0x3e8c6d60	0.27427197
52	0xbd5b06a5	-0.053473134
53	0x3e0ee5c3	0.13954835
54	0x3eb75087	0.35803625
55	0x3e89bba5	0.26900974
56	0x3d58b7f6	0.052909814
57	0xbd9fbcea	-0.077997044
58	0xbeac30be	-0.33630937
59	0xbdac0d78	-0.084010065
60	0x3c0b992a	0.008520404
61	0xbe08f2e9	-0.13373913
62	0x3e91d034	0.2847916
63	0x3d931f4e	0.07183705
64	0xbd9e1e93	-0.07720675
65	0xbdbedb13	-0.09319129
66	0xbf0df883	-0.55457324
67	0xbe85c4ef	-0.2612681
68	0x3d2f419e	0.042787187
69	0xbe557e59	-0.20848979
70	0xbea4f87e	-0.32220834
71	0xbe872fdb	-0.26403698
72	0xbdc19984	-0.09453109
73	0xbd362b20	-0.04447472
74	0x3ec02cbb	0.37534127
75	0x3d899245	0.06717352
76	0xbdca5ab5	-0.09880582
77	0xbdb2311b	-0.087007724
78	0xbe38952b	-0.18025653
79	0xbe3d8619	-0.18508185
80	0xbebd7bb1	-0.37008432
81	0xbe1b5dc5	-0.15172489
82	0xbdbf71ba	-0.093478635
83	0x3da63f87	0.08117586
84	0xbd563101	-0.052292828
85	0xbe0ed5fc	-0.13948816
86	0x3d052753	0.032508206
87	0xba3ea0da	-0.00072718936
88	0xbcb604b8	-0.022219047
89	0x3dbc0e85	0.09182457
90	0x3ecbbb68	0.39791417
91	0x3d0befa5	0.03416409
92	0x3d8167b2	0.063186064
93	0x3df695a7	0.12040263
94	0xbdcb8ebb	-0.09939333
95	0xbd7a7b17	-0.061152544
96	0x3dc8e9d4	0.09810224
97	0x3dce6e4a	0.1007963
98	0x3d74a52b	0.05972783
99	0x3da4107f	0.08010959
100	0xbe5e4c5d	-0.21708818
101	0x3cad486b	0.021152696
102	0x3e5e7e1e	0.21727797
103	0x3d34b946	0.044122003
104	0x3c35ddc5	0.011100237
105	0x3d6a79c6	0.05724504
106	0xbecf5443	-0.40493974
107	0xbee8ac6d	-0.4544405
108	0xbc2b8f1e	-0.0104711335
109	0x3dae5087	0.08511453
110	0x3ef4beae	0.47801727
111	0x3e5fb5ac	0.21846646
112	0xbda227c1	-0.07917739
113	0xbe5b50d9	-0.2141756
114	0xbdfcb603	-0.123394035
115	0xbeb1add9	-0.34702948
116	0xbd61e599	-0.055150602
117	0x3db4b8fc	0.088243455
118	0x3ee9d99b	0.45673832
119	0x3e4b388d	0.19845791
120	0x3dd0086c	0.10157856
121	0xbca703c7	-0.020387543
122	0x3de398f1	0.11113156
123	0x3d43200d	0.047637988
124	0x3e32c323	0.17457251
125	0x3c552c3a	0.013011033
126	0xbe8fd1ae	-0.2808966
127	0xbd9f6ac6	-0.07784037

fc1_a.bias f4 [32]
0	0x3dd41382	0.10355283
1	0x3dc95246	0.098301455
2	0x3e57b5ff	0.2106552
3	0xbdba47e3	-0.090957426
4	0xbd6030e4	-0.054734126
5	0x3dd912e1	0.10599304
6	0x3dd507ea	0.104019
7	0x3da15114	0.078767926
8	0x3e54cf5e	0.2078223
9	0x3d95e98c	0.07319936
10	0x3da5b015	0.080902256
11	0x3da36f86	0.07980256
12	0x3db8d582	0.090250984
13	0x3dbbb78b	0.091658674
14	0x3d698ecb	0.057020944
15	0x3dc0f719	0.0942213
16	0x3dbcbd8f	0.09215843
17	0x3d5f427f	0.054506775
18	0x3daf6894	0.085648686
19	0xbdaa0d18	-0.08303279
20	0x3c3dd7fd	0.01158714
21	0x3e324787	0.17410098
22	0x3d94b179	0.07260413
23	0xbdd29447	-0.10282188
24	0x3e415b84	0.18882567
25	0x3da713ed	0.081580974
26	0x3dfdbcd2	0.1238953
27	0x3d878166	0.06616478
28	0xbd27f3a1	-0.041003827
29	0x3d93ce45	0.07217077
30	0x3e5297bc	0.20565695
31	0x3de1c5f1	0.110240825

fc2_a.weight f4 [32, 32]
0	0x3e68acae	0.22722122
1	0x3d2c7be8	0.042110354
2	0x3e4b350d	0.19844456
3	0x3c324d0a	0.010882625
4	0x3d2ab04e	0.041672044
5	0x3b0d2250	0.0021535344
6	0x3e1e71ef	0.1547315
7	0xbe8f885b	-0.28033718
8	0xbd0c900f	-0.034317072
9	0xbeda6a54	-0.42659247
10	0x3e7efa95	0.24900277
11	0xbeae6d61	-0.34067824
12	0xbe42c666	-0.19020995
13	0xbd02d142	-0.031937845
14	0x3e1c4ff6	0.15264878
15	0x3d95f430	0.07321966
16	0x3e303cb1	0.17210652
17	0x3daae493	0.08344378
18	0xbd67908a	-0.056534328
19	0xbe9f7472	-0.31143528
20	0x3ceb5561	0.028727235
21	0x3e856d1f	0.26059815
22	0xbe0ce6d7	-0.13759933
23	0xbe70ddb1	-0.23522069
24	0x3dabfd43	0.08397915
25	0xbea8e9e0	-0.32990932
26	0x3e1d2f1c	0.15350002
27	0xbe96070e	-0.29302257
28	0x3d068db7	0.032849994
29	0xbe870207	-0.26368734
30	0x3e5c634e	0.21522257
31	0x3cb46f1f	0.022025643
32	0xbe8016dc	-0.2501744
33	0xbe25fba8	-0.1620928
34	0x3de0f238	0.109836996
35	0xbe373f4d	-0.17895241
36	0x3e26fc61	0.16307212
37	0xbe848b2d	-0.25887433
38	0x3ea867bb	0.3289164
39	0x3d6574c7	0.05601957
40	0x3e146225	0.14490564
41	0xbd02b2d1	-0.031908814
42	0xbdfb09ac	-0.12257704
43	0xbd197eae	-0.037474327
44	0x3e4d4cdb	0.2004885
45	0xbd8d0fcc	-0.06887779
46	0xbe31ca42	-0.17362311
47	0x3dd2944c	0.10282192
48	0xbe06236a	-0.13099447
49	0xbf0d1853	-0.5511524
50	0x3d6ac7e2	0.05731953
51	0x3e2f7778	0.17135417
52	0xbe69771a	-0.2279934
53	0x3c77331c	0.015087869
54	0x3e6a27d8	0.22866762
55	0xbdbbfcc6	-0.09179072
56	0x3e185c0d	0.14878865
57	0xbd84db50	-0.06487143
58	0xbea90849	-0.33014134
59	0x3e6fb70c	0.2340967
60	0xbe540912	-0.20706585
61	0x3e8c2aba	0.27376348
62	0x3daa217e	0.083071694
63	0x3d67b033	0.05656452
64	0xbdc96848	-0.09834343
65	0xbdb0c962	-0.08632161
66	0xbd4f7fa3	-0.050658833
67	0x3e1fdafa	0.15610877
68	0x3dbc3db7	0.09191459
69	0xbddf2bf4	-0.10897055
70	0x3d7a5bcd	0.061122704
71	0x3e5f3c18	0.21800268
72	0xbeaaa934	-0.33332217
73	0x3c606b5c	0.0136974715
74	0xbe8311ed	-0.25599614
75	0x3e6a70f5	0.22894652
76	0x3de661a0	0.11249089
77	0x3db77e53	0.08959641
78	0xbde293c2	-0.11063339
79	0x3c9fab50	0.019490868
80	0xbe0c3993	-0.13693838
81	0xbca6f70e	-0.020381477
82	0x3df3160e	0.11869441
83	0x3d4271c9	0.047471795
84	0x3b78539b	0.003789163
85	0xbd62132f	-0.055194076
86	0x3cb907bf	0.022586701
87	0xbe30894f	-0.17239879
88	0xbe0c9c6e	-0.13731548
89	0xbe0d26ec	-0.13784379
90	0xbda98727	-0.082777314
91	0xbe003af6	-0.12522492
92	0x3e11846f	0.14210676
93	0x3d8f7f3e	0.070066914
94	0xbc9dfa07	-0.019284261
95	0xbe0c5dab	-0.13707606
96	0x3e33cc31	0.17558362
97	0x3e26c764	0.16286999
98	0x3e7a8029	0.24462952
99	0x3e0d3a71	0.13791825
100	0xbe01edc8	-0.12688363
101	0x3d8d5a3a	0.06901975
102	0x3cbfc158	0.023407623
103	0xbe6ab21b	-0.22919504
104	0x3e077e31	0.13231732
105	0xbe0a9cba	-0.13536349
106	0x3e0f86a1	0.140162
107	0x3d4a7599	0.049428556
108	0xbe456e9b	-0.19280474
109	0xbea30c64	-0.3184539
110	0x3e222f67	0.15838395
111	0xbd86ffb0	-0.06591737
112	0x3d88df0f	0.0668317
113	0x3d5fe041	0.054657225
114	0xbe16f511	-0.14741923
115	0xbe953741	-0.29143718
116	0xbdb7b639	-0.08970303
117	0x3e5752a3	0.21027617
118	0xbe233e24	-0.15941674
119	0x3d9ddc73	0.07708063
120	0x3dc320e6	0.09527759
121	0x3d389a36	0.045068942
122	0xbdf99fc1	-0.12188674
123	0xbe22580e	-0.15853903
124	0xbe8bf69f	-0.27336594
125	0xbe5ea954	-0.21744281
126	0x3db80616	0.08985536
127	0x3e1db8cc	0.15402526
128	0x3dac8593	0.08423915
129	0x3cb75a95	0.02238206
130	0x3e883d0f	0.26609084
131	0xbd7b506f	-0.061356004
132	0xbd1dad1c	-0.038495168
133	0x3d267427	0.040638115
134	0xbe447fb8	-0.19189346
135	0xbe35ec02	-0.17765811
136	0x3e4386a3	0.19094329
137	0xbea2ea5b	-0.31819424
138	0x3d2831ce	0.041063122
139	0xbcec6cca	-0.028860468
140	0xbe07c7da	-0.13259831
141	0xbe4585b8	-0.19289291
142	0x3dc33a4a	0.09532602
143	0xbc84d913	-0.01621679
144	0x3defba83	0.11705496
145	0x3e6ed682	0.23324016
146	0xbd8def05	-0.06930355
147	0xbec87057	-0.39148208
148	0x3dd50599	0.10401458
149	0x3e03fe38	0.12889946
150	0xbd2ae5c1	-0.041723017
151	0xbd8140a9	-0.06311161
152	0x3e082a64	0.1329742
153	0x3dcb27c7	0.09919696
154	0x3e39488a	0.18094078
155	0xbe7e18f7	-0.24814211
156	0x3ce43711	0.027858289
157	0xbecf7811	-0.4052129
158	0x3ceb4b26	0.028722357
159	0x3e5a9ffb	0.2135009
160	0xbe44841f	-0.19191025
161	0xbe8af996	-0.27143544
162	0xbe25f11e	-0.1620526
163	0x3e7b1e94	0.24523383
164	0xbd98a103	-0.074525855
165	0x3e40700b	0.18792741
166	0xbdac1c8b	-0.08403882
167	0xbdde769d	-0.108624674
168	0xbe14c18b	-0.14526956
169	0x3ad3e413	0.0016165994
170	0xbdfdb480	-0.12387943
171	0x3e4db9bd	0.20090385
172	0x3e5673eb	0.20942657
173	0x3e4557cf	0.19271778
174	0xbcbaa49c	-0.02278357
175	0xbe0b099c	-0.13577884
176	0x3c14c423	0.009079966
177	0xbc8935ee	-0.016749348
178	0x3cbac7a5	0.022800276
179	0x3da4aab3	0.08040371
180	0x3d991f78	0.07476705
181	0x3d34d6e1	0.044150237
182	0x3d0f0f89	0.034926925
183	0x3d85a1c1	0.06524993
184	0xbdb27503	-0.087137245
185	0x3e361a3a	0.17783442
186	0x3b5afe04	0.0033415565
187	0x3e56c76b	0.2097451
188	0x3ce1f5de	0.027583059
189	0x3e0d04de	0.13771388
190	0xbe7d1d71	-0.24718262
191	0xbdaf6d6f	-0.08565795
192	0x3e20af23	0.1569181
193	0x3cdb5c50	0.026777416
194	0x3de0ecab	0.10982641
195	0x3db670ea	0.089082554
196	0xbdf1dc48	-0.118095934
197	0x3e531cc0	0.20616436
198	0x3dce8b4e	0.10085164
199	0xbd19e4ef	-0.037571844
200	0x3d96cf5d	0.0736377
201	0xbddd4993	-0.10805049
202	0x3dbb72ae	0.09152733
203	0xbdfa2d5b	-0.12215682
204	0x3a33f4da	0.0006864794
205	0xbd553a70	-0.052057683
206	0x3e44441f	0.19166611
207	0x3dd3b5df	0.103374235
208	0x3d99fa86	0.07518487
209	0x3e39898e	0.18118879
210	0xbe304040	-0.1721201
211	0xbeb52226	-0.35377616
212	0x3c8833d1	0.01662627
213	0x3e19f1ae	0.150336
214	0x3d32716d	0.043565203
215	0xb9ea5b72	-0.0004470009
216	0x3d958deb	0.07302459
217	0xbe92d2ce	-0.28676456
218	0x3de1e1d2	0.110294
219	0xbea4d2f8	-0.32192206
220	0xbe64fd19	-0.22362174
221	0xbe8c38d2	-0.273871
222	0x3dab10c8	0.0835281
223	0x3dd09966	0.101855084
224	0xbe5d6794	-0.21621543
225	0xbbd00fd1	-0.0063495417
226	0x3e396880	0.1810627
227	0xbdf560ce	-0.11981355
228	0xbc2b911b	-0.010471608
229	0xbebc4012	-0.36767632
230	0x3cae7217	0.021294637
231	0x3e2f8969	0.17142262
232	0x3e881e1b	0.2658547
233	0xbe370142	-0.17871574
234	0xbed87c0b	-0.42282137
235	0x3dbe1274	0.092808634
236	0x3deddeb7	0.11614745
237	0x3eaa057e	0.33207315
238	0xbe134866	-0.14383087
239	0x3aefe416	0.0018302228
240	0xbe8c5117	-0.27405617
241	0xbe31ba73	-0.17356281
242	0x3dd4f681	0.103985794
243	0x3cb1c5e6	0.02170081
244	0xbe90ae27	-0.28257868
245	0xbd2f11ed	-0.042741705
246	0x3e4ae90b	0.19815461
247	0xbd45a3df	-0.048251983
248	0x3d7061f1	0.058687154
249	0xbda9e814	-0.082962185
250	0xbdf3df92	-0.11907877
251	0x3d9ad927	0.0756095
252	0xbd1ae1a7	-0.037812855
253	0x3dbd4e61	0.09243465
254	0x3e2870e0	0.16449308
255	0xbdd155bb	-0.1022143

fc2_a.bias f4 [32]
0	0x3e00bff4	0.12573224
1	0x3e02bfc2	0.12768462
2	0xbda58119	-0.08081264
3	0x3dd20bcb	0.102561556
4	0x3e00204d	0.12512322
5	0xbd98974f	-0.07450735
6	0x3dac596a	0.08415492
7	0x3dc0b49e	0.0940945
8	0x3da15f7d	0.07879541
9	0x3dde9ee2	0.10870148
10	0x3dbfb1b3	0.09360065
11	0x3dc3a1d6	0.09552352
12	0x3df2d9c9	0.118579455
13	0x3cd769ad	0.026295507
14	0x3dc1ec18	0.094688594
15	0x3dfd5ba5	0.123709954
16	0x3dd04289	0.101689406
17	0x3dac28dd	0.084062316
18	0xbda28f0c	-0.0793744
19	0x3ddde53a	0.10834737
20	0x3e05d362	0.13068917
21	0x3dec34f6	0.11533539
22	0x3d859749	0.06522996
23	0xbad8e535	-0.0016547801
24	0x3dadf546	0.08494048
25	0x3dcaa883	0.09895422
26	0x3de19daa	0.110164
27	0xbd7d1d2c	-0.0617954
28	0x3dbba4c3	0.09162285
29	0x3dff0a43	0.12453129
30	0xbd4bf248	-0.049791604
31	0xbdc3cec0	-0.09560919

fc3_a.weight f4 [2, 32]
0	0x3e03b573	0.12862186
1	0xbea6549f	-0.32486436
2	0x3e71fff9	0.23632802
3	0x3ec1a773	0.37823066
4	0x3e91924f	0.28431937
5	0x3e94f9e3	0.29096898
6	0x3e5777b7	0.21041761
7	0xbea1d4eb	-0.31607756
8	0xbe3d07b2	-0.18459967
9	0x3e245642	0.1604853
10	0xbe915add	-0.28389636
11	0xbe6ba72d	-0.23012991
12	0x3d73a0d9	0.05947957
13	0xbdea0632	-0.11426963
14	0xbe0fe3e4	-0.14051777
15	0x3e8b988a	0.27264816
16	0x3e0a1a88	0.13486683
17	0x3ea2dfc9	0.3181136
18	0xbea2b375	-0.3177754
19	0x3e8477df	0.25872704
20	0x3e9675f2	0.2938686
21	0xbe6d2555	-0.23158772
22	0x3e3b4d0f	0.18291114
23	0x3bc4d7f2	0.006007188
24	0xbec85c69	-0.39133003
25	0xbe3dd62b	-0.1853873
26	0x3e83e24e	0.25758594
27	0xbeb5576c	-0.3541826
28	0xbe269b4c	-0.16270179
29	0xbe842675	-0.2581059
30	0xbe7e231b	-0.24818079
31	0xbcdfd5f4	-0.0273237
32	0xbe36737d	-0.17817493
33	0x3e525bcf	0.20542835
34	0xbd470fe9	-0.048599157
35	0xbe3c368d	-0.18380184
36	0xbd9be7e5	-0.0761259
37	0xbd8eeb28	-0.06978446
38	0xbdfd5bc0	-0.123710155
39	0x3ea111bd	0.31458846
40	0x3e147e69	0.14501347
41	0xbdcff5a7	-0.10154276
42	0x3ea973de	0.33096212
43	0x3e73549f	0.23762749
44	0xbe1b3c01	-0.15159608
45	0x3cf7c0bb	0.030243268
46	0x3e4515e4	0.19246632
47	0xbda850a7	-0.08218508
48	0xbe6871fa	-0.22699729
49	0xbe258054	-0.16162235
50	0x3e6decd7	0.23234878
51	0xbe66dbab	-0.22544734
52	0xbd570f68	-0.052504927
53	0x3dd26b67	0.102743916
54	0xbe081f00	-0.13293076
55	0xbc348c2b	-0.011019747
56	0x3e66f3d5	0.22553952
57	0x3e5c68a1	0.21524288
58	0xbe3ed7d0	-0.18637013
59	0x3e8777b9	0.2645853
60	0x3eb29f26	0.34887046
61	0x3d9d1378	0.07669729
62	0x3ecf5666	0.40495604
63	0xbe722ac4	-0.23649126

fc3_a.bias f4 [2]
0	0xbc82e6da	-0.01597922
1	0x3c82e6da	0.01597922

fc1_c.weight f4 [32, 4]
0	0x3dc722e2	0.0972345
1	0x3e16bfa6	0.14721546
2	0xbdfc1fea	-0.123107746
3	0xbd60059c	-0.05469285
4	0x3de5ae4b	0.11214884
5	0x3d91b225	0.071140565
6	0x3d88e131	0.06683577
7	0x3e425e12	0.18981197
8	0x3daace39	0.08340115
9	0xbd916fd9	-0.07101411
10	0xbd914542	-0.07093288
11	0x3e0e9b47	0.13926421
12	0x3e78b7e6	0.24288902
13	0x3e21b544	0.15791804
14	0xbe264899	-0.16238631
15	0xbbe6b2b6	-0.007040347
16	0xbdc4a787	-0.09602266
17	0xbd04c18b	-0.03241114
18	0xbe047878	-0.1293658
19	0x3da2ea27	0.07954817
20	0x3e8a9ecc	0.27074277
21	0x3e569a96	0.20957407
22	0xbd0659ef	-0.03280061
23	0x3d90f51c	0.07078001
24	0x3dfab050	0.1224066
25	0xbd9c85ad	-0.07642684
26	0xbe370c0a	-0.17875686
27	0x3dee3440	0.1163106
28	0xbe4a7fdb	-0.19775335
29	0x3e1ff4bb	0.15620701
30	0xbd2deb27	-0.042460587
31	0x3e72a79b	0.23696749
32	0x3e6d6379	0.23182477
33	0x3e9e6ce1	0.30942443
34	0xbbff5f42	-0.007793338
35	0x3dbb85c9	0.09156377
36	0x3e9f796f	0.31147334
37	0x3e1f731a	0.15571252
38	0x3da997d8	0.08280915
39	0x3ce61b35	0.028089145
40	0xbe2e0812	-0.16995266
41	0xbd0fd9af	-0.03511971
42	0xbd85b644	-0.06528905
43	0x3d5ef540	0.054433107
44	0x3cb4497c	0.022007696
45	0xbe65ea73	-0.22452717
46	0xbdb8c6c5	-0.09022287
47	0xbd4a79f8	-0.049432725
48	0x3e717025	0.23577936
49	0x3e1a8427	0.15089475
50	0xbca12a57	-0.01967351
51	0xbd4083ce	-0.0470007
52	0xbda1d964	-0.07902792
53	0xbdd4696c	-0.1037167
54	0xbd9329e4	-0.071857244
55	0x3c3e07aa	0.011598507
56	0xbdf9d339	-0.12198491
57	0x3dc2dc52	0.09514679
58	0x3e052a38	0.13004386
59	0x3e31ecc7	0.1737548
60	0x3d9379e0	0.0720098
61	0x3c8bed8d	0.017081046
62	0xbe087b12	-0.13328198
63	0x3e59cbb9	0.2126912
64	0x3daf5e40	0.08562899
65	0x3dff287b	0.12458893
66	0xbdee1d8e	-0.11626731
67	0xbdc026b5	-0.09382383
68	0x3e54b730	0.20773005
69	0x3e8bfe2f	0.27342364
70	0xbdcd855b	-0.10035201
71	0x3e040160	0.1289115
72	0xbea5713a	-0.32312948
73	0xbeb273eb	-0.34854063
74	0xbe802cf2	-0.2503429
75	0x3c84028c	0.016114496
76	0x3e2893e2	0.16462663
77	0x3e449a5d	0.1919951
78	0xbd9ec62d	-0.07752643
79	0x3ceb038a	0.028688211
80	0x3df3bd96	0.11901395
81	0x3e9a4a19	0.30134657
82	0x3dd36fba	0.103240445
83	0x3cf2dbea	0.029645879
84	0x3e38e25e	0.18055102
85	0x3e96c7dd	0.2944936
86	0xbde07d8b	-0.109614454
87	0x3dcaa6f4	0.09895125
88	0x3fb0f8b9	1.3825904
89	0x3eebf521	0.46085456
90	0x3ee35ddc	0.44407547
91	0x3ee0db06	0.43917102
92	0x3e0b8e9d	0.13628621
93	0x3e86dbd4	0.2633959
94	0x3e889c65	0.2668182
95	0x3dde8847	0.108658366
96	0xbf9c7fa5	-1.2226454
97	0xbf101efa	-0.56297266
98	0xbe9a001b	-0.30078205
99	0xbee340ab	-0.44385275
100	0x3e1f67f3	0.15566997
101	0x3e77a296	0.24183115
102	0xbe22ab6d	-0.15885706
103	0x3cbd7e5d	0.023131544
104	0x3c299766	0.010351038
105	0xbd7bf60d	-0.06151395
106	0xbde57307	-0.1120358
107	0x3d925bf9	0.07146449
108	0x3f9379c6	1.1521537
109	0x3f06942d	0.5256985
110	0x3ed6278b	0.41827044
111	0x3ec054e7	0.37564775
112	0xbce3c4e5	-0.027803848
113	0xbe2c3a12	-0.16819027
114	0xbe97da83	-0.296589
115	0xbda4956e	-0.08036314
116	0xbd3dd1aa	-0.04634253
117	0xbdced80d	-0.10099802
118	0xbe58ac7f	-0.21159552
119	0xbc337da0	-0.010955244
120	0xbcbbb0e8	-0.022911504
121	0x3cfc0c03	0.030767446
122	0xbdc2563e	-0.09489106
123	0x3e453ebe	0.19262215
124	0x3d0d9b13	0.03457172
125	0x3c712628	0.01471857
126	0xbde2164b	-0.11039408
127	0x3e43ed37	0.19133459

fc1_c.bias f4 [32]
0	0x3ed6e4cf	0.41971442
1	0x3ed7378d	0.4203457
2	0x3ee822af	0.4533896
3	0x3ed76f60	0.4207716
4	0x3ecdb504	0.40177166
5	0x3ed94f98	0.42443538
6	0x3edcbda5	0.43113437
7	0x3ed7c90c	0.42145574
8	0x3eeaa09b	0.45825657
9	0x3ed081ef	0.4072413
10	0x3ed71db4	0.4201485
11	0x3eee8805	0.4658815
12	0x3ed0a22e	0.40748733
13	0x3edcaf21	0.43102363
14	0x3ecc3b89	0.39889172
15	0x3eec2dfe	0.4612884
16	0x3ed727b5	0.42022482
17	0x3ed85540	0.4225254
18	0x3ed8d4be	0.4234981
19	0x3ed5c796	0.41753834
20	0x3eefd60b	0.4684299
21	0x3ee0d896	0.43915242
22	0x3c9a7264	0.018853374
23	0x3ec0fe21	0.37693885
24	0x3c4a898c	0.012361895
25	0x3edd5ab9	0.43233278
26	0x3ed6a0de	0.41919607
27	0x3c0b46f2	0.008500801
28	0x3ee0969b	0.43864903
29	0x3ed30301	0.4121323
30	0x3ed99512	0.42496544
31	0x3ed4aaf8	0.4153669

fc2_c.weight f4 [32, 32]
0	0xbd3a99ad	-0.045556713
1	0xbd7c99ca	-0.061670102
2	0xbc797617	-0.015225909
3	0xbc75dc49	-0.015006133
4	0xbdfad3a0	-0.122473955
5	0x3c0a357c	0.008435603
6	0xbe38a93d	-0.1803331
7	0x3de6a40b	0.112617575
8	0x3d2b363b	0.041799765
9	0xbdee6e3e	-0.11642121
10	0xbdfcf8ff	-0.1235218
11	0xbd0c2b32	-0.03422088
12	0x3e481f0c	0.19543093
13	0x3e22ef9d	0.15911718
14	0x3c9d317d	0.019188637
15	0xbdb75469	-0.08951647
16	0xbd8a91df	-0.06766104
17	0x3d76ce68	0.060255438
18	0xbd8bbb96	-0.068228886
19	0xbd32d89f	-0.043663617
20	0x3d40a389	0.04703096
21	0xbd82c0a1	-0.06384397
22	0xbdf1962f	-0.11796223
23	0xbe9830a7	-0.2972462
24	0xbd0c9713	-0.034323763
25	0xbd69caea	-0.05707828
26	0xbd1d6bac	-0.038432762
27	0x3c5b6f52	0.01339324
28	0xbe1426f9	-0.14467992
29	0xbdb15d88	-0.08660418
30	0x3d339f80	0.043853283
31	0xbd0592ce	-0.032610707
32	0x3ee74673	0.45170936
33	0x3eea830a	0.458031
34	0x3f096a64	0.53677964
35	0x3ea328f4	0.31867182
36	0x3eff3b8b	0.49850115
37	0x3ef969b1	0.4871345
38	0x3edf5657	0.4362056
39	0x3ec92db1	0.39292672
40	0x3ead4b1c	0.33846366
41	0x3f0c670e	0.5484475
42	0x3f0267cd	0.5093964
43	0x3e39a0bc	0.18127722
44	0x3f292077	0.6606516
45	0x3ec796d1	0.3898225
46	0x3f04f10f	0.51930326
47	0x3e779360	0.24177313
48	0x3ee72bbe	0.4515056
49	0x3edecc06	0.43515033
50	0x3e9f1213	0.31068477
51	0x3e9e7eeb	0.30956206
52	0x3e96e483	0.29471216
53	0x3ecf9d7e	0.40549845
54	0xbfa7c803	-1.3107914
55	0x3e97612f	0.29566333
56	0xbf8f220c	-1.1182265
57	0x3edbd63e	0.4293689
58	0x3ecd8480	0.40140152
59	0xbf8b2282	-1.0869906
60	0x3edb65ed	0.428512
61	0x3ebd70f0	0.37000227
62	0x3f203ea9	0.6259561
63	0x3f02ef36	0.51146257
64	0x3ea60cdc	0.32431686
65	0x3f01bf8d	0.5068291
66	0x3eb3d829	0.35125855
67	0x3ec2cc93	0.38046703
68	0x3f08e991	0.53481394
69	0x3ec8b120	0.39197636
70	0x3eedf9fd	0.46479788
71	0x3ef6a446	0.48172206
72	0x3eefaf80	0.46813583
73	0x3ec66da1	0.38755515
74	0x3eb44f88	0.35216928
75	0x3ef30766	0.47466582
76	0x3ed715d5	0.42008844
77	0x3eef3398	0.4671905
78	0x3ee84461	0.4536467
79	0x3e84fe35	0.25975195
80	0x3ebd2bc1	0.36947444
81	0x3e860123	0.26172742
82	0x3f04f0e1	0.5193005
83	0x3ebc8087	0.3681681
84	0x3eed14a0	0.46304798
85	0x3ea283af	0.31741092
86	0xbf9f5358	-1.244731
87	0x3eb6ae19	0.356797
88	0xbf8b2b2e	-1.0872552
89	0x3eb52749	0.35381535
90	0x3ea437e5	0.32073894
91	0xbf883436	-1.0640934
92	0x3ee38748	0.4443915
93	0x3f0b938c	0.54522014
94	0x3ee153d7	0.44009277
95	0x3e5c514e	0.2151539
96	0x3eea89c4	0.45808232
97	0x3eee26ac	0.4651388
98	0x3ec62505	0.3870012
99	0x3ec6790a	0.3876422
100	0x3f26728f	0.6501855
101	0x3ef56c22	0.4793406
102	0x3ec62881	0.38702777
103	0x3ea9da3d	0.33174315
104	0x3edab08f	0.4271283
105	0x3ef210b6	0.47278374
106	0x3ef65ed8	0.48119235
107	0x3e9d731e	0.3075189
108	0x3ef15236	0.47133034
109	0x3ec533f8	0.38516212
110	0x3f173be4	0.5907576
111	0x3ebc562f	0.36784503
112	0x3ebe9e9b	0.3723038
113	0x3f2a7a74	0.665931
114	0x3e8df62c	0.27726877
115	0x3ebf1774	0.3732258
116	0x3ec32d55	0.38120523
117	0x3ed99e4f	0.42503592
118	0xbf732a0e	-0.94986045
119	0x3f055384	0.5208056
120	0xbf86dcd2	-1.0536139
121	0x3eabc8d4	0.33551657
122	0x3ea38eed	0.3194498
123	0xbf6ad5ef	-0.91732687
124	0x3efe0a1a	0.49617082
125	0x3ecff84c	0.40619123
126	0x3f05ed13	0.5231487
127	0x3ef21602	0.47282416
128	0x3ebe0d49	0.3711951
129	0x3ebcae91	0.36851934
130	0x3ed801cb	0.42188868
131	0x3ed3d18b	0.41370806
132	0x3ec3dcd9	0.3825443
133	0x3e6901d9	0.22754611
134	0x3eb464cd	0.35233155
135	0x3ef1fe85	0.47264495
136	0x3e87f7e1	0.26556304
137	0x3f1552ae	0.58329284
138	0x3eb9a40f	0.3625798
139	0x3ee89b8b	0.4543117
140	0x3ee9eb4b	0.45687327
141	0x3ea5770c	0.32317388
142	0x3eed29e9	0.46321037
143	0x3ebd46c4	0.36968052
144	0x3ed07c60	0.4071989
145	0x3edc0bf3	0.42977867
146	0x3edf434c	0.4360603
147	0x3ef5e6f2	0.4802776
148	0x3eb3b2d1	0.35097364
149	0x3ebbf68d	0.3671154
150	0xbf8e1ea0	-1.1103096
151	0x3ec533e9	0.38516167
152	0xbf83e360	-1.0303764
153	0x3ec4faca	0.38472587
154	0x3f10e871	0.5660468
155	0xbf86e82b	-1.0539602
156	0x3e95766a	0.29191905
157	0x3e85f9f2	0.26167256
158	0x3e8a2a95	0.26985613
159	0x3ee09ff4	0.43872035
160	0x3ec6f44e	0.38858265
161	0x3f077d45	0.5292552
162	0x3ea16a5b	0.31526455
163	0x3e931841	0.28729442
164	0x3ee79c3e	0.4523639
165	0x3eb1e865	0.34747615
166	0x3ef68ef2	0.48155934
167	0x3f1242e3	0.5713331
168	0x3ecfcd4f	0.40586326
169	0x3ec89417	0.39175484
170	0x3f07f359	0.53105694
171	0x3e816890	0.25275087
172	0x3f01333e	0.50468814
173	0x3ebe49a0	0.37165546
174	0x3ea17e30	0.31541586
175	0x3f02fcb2	0.5116683
176	0x3f222bff	0.6334838
177	0x3f2092bd	0.62723905
178	0x3e585fb8	0.21130264
179	0x3eee5f94	0.46557295
180	0x3e8fb2a7	0.28065988
181	0x3f08a3f4	0.5337517
182	0xbf9384e1	-1.1524926
183	0x3f19e71a	0.6011826
184	0xbf9e8d0e	-1.2386796
185	0x3ea46dfe	0.32115167
186	0x3e6c76e0	0.23092222
187	0xbf941da6	-1.1571548
188	0x3e66a997	0.22525631
189	0x3edd9b54	0.43282568
190	0x3eaed1a7	0.34144327
191	0x3f1cdbdc	0.6127298
192	0xbe1174fd	-0.14204784
193	0x3cfb0d1f	0.030645905
194	0x3dacae57	0.0843169
195	0xbe1526ff	-0.14565657
196	0x3eb85842	0.36004835
197	0xbeaba2d8	-0.33522677
198	0x3e4636b0	0.19356799
199	0x3eab3f6f	0.33446833
200	0xbe75d5d1	-0.24007346
201	0xbe7d3310	-0.2472651
202	0x3e599c72	0.21251085
203	0x3e96ff03	0.29491434
204	0xbd181cfa	-0.03713701
205	0x3db8923f	0.09012269
206	0x3e2d7088	0.16937459
207	0x3e51dea4	0.20495087
208	0x3e1f7ca3	0.15574889
209	0xbeac32d2	-0.33632523
210	0x3d729c52	0.05923111
211	0xbe71a3b8	-0.2359761
212	0xbd1859d4	-0.03719504
213	0xbdfd58f0	-0.12370479
214	0x3f92577d	1.1432949
215	0x3c216b76	0.009852281
216	0x3fa800de	1.3125265
217	0xbe559d3f	-0.20860766
218	0x3dc078f4	0.0939807
219	0x3f5ac6e7	0.8545975
220	0x3eb85d44	0.36008656
221	0x3dafba35	0.08580438
222	0x3e63db10	0.22251534
223	0x3e35927c	0.1773166
224	0x3e242217	0.16028629
225	0x3ec27e6e	0.37987083
226	0x3e5b8133	0.21436004
227	0x3ed277e0	0.41107082
228	0x3f13a404	0.57672143
229	0x3f06ad81	0.52608496
230	0x3edc92d1	0.43080762
231	0x3ee84d3d	0.45371428
232	0x3e747b07	0.23875056
233	0x3f110cbc	0.56660056
234	0x3f06a6e0	0.5259838
235	0x3e800da4	0.25010407
236	0x3e57ff1c	0.2109341
237	0x3ee88cf5	0.45420042
238	0x3ef30e4c	0.47471845
239	0x3e7460f9	0.23865117
240	0x3e939bc0	0.28829765
241	0x3f0b3a5a	0.5438591
242	0x3ecf80a4	0.40527833
243	0x3eeccb46	0.46248835
244	0x3e3ce4c3	0.1844664
245	0x3ed47871	0.4149814
246	0xbf96a95f	-1.1770438
247	0x3eafac9c	0.34311378
248	0xbf959231	-1.1685239
249	0x3ec1e5f1	0.37870744
250	0x3ed06dd1	0.40708783
251	0xbf956e73	-1.1674331
252	0x3ee6a5d5	0.45048395
253	0x3efaf286	0.49013156
254	0x3ea13a96	0.3149001
255	0x3f027dfd	0.5097349

fc2_c.bias f4 [32]
0	0xbb635dd5	-0.003469338
1	0x3e962371	0.29323915
2	0x3e9a16dc	0.30095565
3	0x3eb05c7a	0.34445554
4	0x3e80f7ad	0.25188962
5	0x3eac6821	0.33673194
6	0x3d82bfde	0.06384252
7	0x3e96491c	0.29352653
8	0x3e8314c5	0.25601783
9	0x3e953533	0.2914215
10	0xbc183914	-0.009290952
11	0x3d1090f1	0.035294477
12	0xbc11403a	-0.00886541
13	0x3d80a778	0.06281942
14	0x3e94aac3	0.2903653
15	0x3e8f99ab	0.28046927
16	0x3ce49a93	0.027905738
17	0x3e85f046	0.26159877
18	0x3d8d7576	0.069071695
19	0xbd1167f1	-0.035499517
20	0x3c31acd1	0.010844425
21	0xbcc03685	-0.023463497
22	0xbc17bb00	-0.009260893
23	0xbada9253	-0.0016675688
24	0xbc036286	-0.008019095
25	0x3eafa55e	0.34305853
26	0x3ea1cd54	0.31601965
27	0x3d830d37	0.06399005
28	0x3ea0e82c	0.31427133
29	0xbbced667	-0.00631218
30	0x3c9ffe78	0.01953052
31	0x3e8f592b	0.27997717

fc3_c.weight f4 [1, 32]
0	0xbc827246	-0.01592363
1	0x3f172780	0.5904465
2	0x3f179142	0.5920602
3	0x3f046900	0.5172272
4	0x3f354951	0.70814997
5	0x3f024046	0.50879323
6	0xbf7f567e	-0.9974135
7	0x3f2d246a	0.6763369
8	0x3f260991	0.6485835
9	0x3f16f4e1	0.58967406
10	0xbf852e3e	-1.0404737
11	0xbf8cbd0b	-1.0995191
12	0xbd34bb01	-0.044123653
13	0xbf75e203	-0.9604799
14	0x3f111544	0.56673074
15	0x3f1fde67	0.62448734
16	0xbf76c78b	-0.9639823
17	0x3f2a7603	0.6658632
18	0xbf7080ae	-0.9394635
19	0xbf84960d	-1.0358292
20	0xbf87f7c7	-1.0622491
21	0x3dc5f0f5	0.096650995
22	0xbd3bcbb1	-0.045848552
23	0xbd80e273	-0.06293192
24	0xbd008580	-0.031377316
25	0x3f06dd72	0.5268165
26	0x3f0f520a	0.55984557
27	0xbfa37324	-1.2769513
28	0x3f0a0843	0.53918856
29	0xbcaa08ed	-0.02075621
30	0xbf2c31a8	-0.6726327
31	0x3f203e9b	0.6259553
