assignment1/task_3_2.pt (torch, 13313 bytes, 11 tensors)

fc1_a.weight f4 [32, 2]
-0.052369364 0.1536573 0.13478169 0.10797488 -0.13294083 0.026359342 0.16913122 -0.12997976
0.01867153 -0.13713087 0.026796792 0.108224444 0.08869322 -0.088436484 -0.027633691 -0.27379698
0.18362132 -0.09376354 0.19927968 -0.08064183 0.25206473 -0.0135573605 -0.103211306 -0.022033202
-0.00860511 -0.037511583 0.18242273 -0.15380086 -0.0661129 0.24281082 0.01077589 -0.1345417
0.28723618 0.037597455 0.16093566 0.123223215 -0.1198577 0.12265464 -0.22581609 -0.13219818
-0.14923012 0.18615559 -0.07371227 0.09373174 -0.07281886 -0.035324138 0.0835356 -0.23258503
-0.062481225 0.13712195 0.091628276 -0.09284348 0.12840018 0.14086609 0.056363788 -0.1652259
-0.21873458 -0.028605856 -0.051921796 -0.024421263 -0.224 0.077344574 -0.19079354 0.16164389
00000000: 4281 56bd 5758 1d3e 3604 0a3e ef21 dd3d
00000010: a421 08be 8cef d73c bc30 2d3e 6a19 05be
00000020: 09f5 983c 096c 0cbe f284 db3c c7a4 dd3d
00000030: caa4 b53d 301e b5bd 0d60 e2bc 1e2f 8cbe
00000040: 3a07 3c3e 1907 c0bd f90f 4c3e 8b27 a5bd
00000050: a10e 813e b11f 5ebc 7360 d3bd f97e b4bc
00000060: 73fc 0cbc bfa5 19bd 06cd 3a3e f97d 1dbe
00000070: 3366 87bd 66a3 783e 5c8d 303c 4dc5 09be
00000080: 9f10 933e caff 193d 51cc 243e 745c fc3d
00000090: f477 f5bd 5b32 fb3d 553c 67be f65e 07be
000000a0: c8cf 18be 929f 3e3e 75f6 96bd 6df6 bf3d
000000b0: 0e22 95bd 0bb0 10bd b614 ab3d c52a 6ebe
000000c0: 50ec 7fbd b269 0c3e 9ba7 bb3d b924 bebd
000000d0: 567b 033e 333f 103e b7dd 663d fa30 29be
000000e0: f5fb 5fbe d456 eabc f3ab 54bd 1a0f c8bc
000000f0: 4260 65be d566 9e3d 625f 43be fa85 253e

fc1_a.bias f4 [32]
0.28311226 -0.02765546 0.2909501 0.22330275 -0.056561638 0.17810157 0.20020278 0.044149876
0.06870092 0.1415492 0.07147799 -0.038888827 -0.009621734 0.24589781 0.20318076 0.26129633
-0.05163074 -0.10285151 0.23752351 -0.030686624 0.1689098 0.034576293 0.36547333 0.25031716
0.21998641 0.2554263 0.06463185 -0.06896445 -0.06206988 0.2470727 0.36862162 0.14622468
00000000: 17f4 903e b48d e2bc 69f7 943e 7aa9 643e
00000010: 2dad 67bd 4260 363e f501 4d3e 80d6 343d
00000020: 11b3 8c3d 46f2 103e 0d63 923d e449 1fbd
00000030: 7aa4 1dbc a3cc 7b3e 9e0e 503e a2c8 853e
00000040: c17a 53bd d0a3 d2bd 5d39 733e 8462 fbbc
00000050: b1f6 2c3e df9f 0d3d 521f bb3e 9229 803e
00000060: 1e44 613e 3cc7 823e b45d 843d 3c3d 8dbd
00000070: fd3c 7ebd a000 7d3e f9bb bc3e ecbb 153e

fc2_a.weight f4 [32, 32]
0.16570987 -0.13300456 0.44650546 -0.041734166 0.13119024 0.12639822 0.07940915 0.1419229
-0.27075365 0.078227125 -0.23723091 -0.042298056 -0.11116962 0.09362025 -0.017664874 0.25208616
-0.21607135 -0.12150937 0.26747018 -0.03864142 0.14217189 0.092826694 0.50914836 0.08112376
0.06671065 0.03716029 -0.032636613 -0.12779513 -0.010356511 0.20538326 0.499512 0.11691665
-0.079565175 0.030499404 -0.13742584 0.395616 -0.15205589 -0.06978196 0.18938293 0.075065255
0.20204717 0.25809377 0.005932851 0.13698468 -0.01754235 0.18361792 0.05784102 0.13046269
0.082944825 0.012832599 -0.12740418 0.14346534 -0.086086094 -0.17936993 0.053968582 0.29127067
0.23967887 0.5218805 -0.13451086 0.042777084 -0.064029716 0.03368536 -0.33630177 -0.30352932
0.047740284 -0.049289197 0.41336724 -0.18354818 -0.005364244 0.048785843 0.31429926 0.03237003
-0.10817208 -0.028238768 -0.08862655 -0.047479056 -0.056895096 -0.01070468 0.075806044 0.28692153
-0.16046408 -0.053489365 0.27957353 0.07959247 -0.0011609958 -0.07468733 0.55880404 0.28764474
0.058214642 0.18733907 -0.21641791 0.03364919 -0.057836305 0.36095232 0.51762885 0.20587295
-0.0067593544 0.058548816 0.23764609 -0.12554114 0.0635659 0.03432475 0.23622996 0.12080216
-0.30782494 -0.18581915 0.06074798 -0.11551296 -0.09305908 -0.09031449 0.25895095 -0.048767455
-0.04519958 0.17512478 0.1118828 -0.035333183 0.17808142 0.046825737 0.21390896 -0.082247585
0.26176152 -0.060062967 0.26884758 0.16604023 -0.055099234 0.088376835 0.41729772 0.22841892
-0.0033993344 0.038591966 0.0035661105 0.011264429 -0.10898277 -0.038021483 0.0740622 0.122660704
0.17939003 -0.026614051 0.08728666 0.022099255 0.022836009 0.04405574 -0.03179382 -0.018702812
-0.1303228 0.08196804 -0.20294912 0.03296541 -0.18315388 -0.09173073 -0.03717751 -0.093708076
-0.03719197 -0.06649918 -0.09319563 0.03946027 -0.017684506 0.015776835 0.032482345 0.107394464
-0.0069975117 0.06495575 0.44281864 -0.043634184 -0.20227584 0.22641528 -0.07306917 0.16946052
-0.16555172 -0.120548375 0.19691533 -0.02472094 -0.17846067 -0.116147 0.02334028 0.010065349
0.014697701 -0.09785122 0.35470217 0.04667587 0.2825158 -0.12151634 0.3855536 -0.13570887
0.10413047 -0.18917651 -0.10058014 -0.13153027 0.022738237 0.34102196 0.61938643 0.39801094
0.0085992515 -0.046677247 0.070898585 0.3541515 -0.15281862 0.06507048 0.17138904 0.12936184
0.117507406 -0.050280478 0.015809264 -0.0045410763 -0.01895896 0.16861656 0.02652402 0.22022681
0.021986132 -0.07529395 0.12898189 -0.021790829 -0.04779139 -0.25189766 0.2377959 0.26105806
0.05457169 0.41477188 -0.09243743 -0.08705414 0.14270513 0.2431046 0.006009116 -0.21348117
-0.05864067 -0.06381765 0.09009908 0.3290493 0.20474495 0.09108624 0.058553282 0.14302987
0.095027626 0.08820833 0.08799405 0.05667845 0.06881212 0.14182523 0.0993491 0.18468772
-0.025813024 0.14200345 0.0010489542 0.10358678 -0.063061394 -0.11973253 0.19268343 0.23089187
0.21719484 0.30619842 0.08239062 0.01472614 -0.059514422 0.002790398 -0.20171209 -0.13597603
00000000: d9af 293e 5932 08be 5d9c e43e 72f1 2abd
00000010: bc56 063e 896e 013e 44a1 a23d 3d54 113e
00000020: 39a0 8abe 8b35 a03d a9ec 72be ba40 2dbd
00000030: e6ac e3bd f9bb bf3d edb5 90bc 7011 813e
00000040: cf41 5dbe e8d9 f8bd daf1 883e 7746 1ebd
00000050: 8295 113e ec1b be3d 8c57 023f 3724 a63d
00000060: 989f 883d 6335 183d f8ad 05bd badc 02be
00000070: 5bae 29bc fd4f 523e 09c0 ff3e ff71 ef3d
00000080: 11f3 a2bd e3d9 f93c 5cb9 0cbe 2e8e ca3e
00000090: 8ab4 1bbe d8e9 8ebd 99ed 413e d0bb 993d
000000a0: 74e5 4e3e de24 843e 5d68 c23b b645 0c3e
000000b0: f9b4 8fbc 5606 3c3e b5ea 6c3d 0398 053e
000000c0: fade a93d d23f 523c 3e76 02be 94e8 123e
000000d0: e84d b0bd c0ac 37be 290e 5d3d 6e21 953e
000000e0: 616e 753e f699 053f 37bd 09be 0637 2f3d
000000f0: 0322 83bd a9f9 093d bf2f acbe 3268 9bbe
00000100: 518b 433d 78e3 49bd dfa4 d33e 0ef4 3bbe
00000110: 8ac6 afbb aad3 473d d5eb a03e 7096 043d
00000120: 5389 ddbd fd54 e7bc d681 b5bd 6679 42bd
00000130: d50a 69bd af62 2fbc 3340 9b3d 61e7 923e
00000140: b250 24be aa17 5bbd 4324 8f3e 6001 a33d
00000150: 8e2c 98ba acf5 98bd c80d 0f3f 2c46 933e
00000160: 7a72 6e3d d0d5 3f3e a89c 5dbe bcd3 093d
00000170: c3e5 6cbd bece b83e 5383 043f 5cd0 523e
00000180: 937d ddbb e2d0 6f3d 7f59 733e db8d 00be
00000190: d72e 823d 1c98 0c3d 44e6 713e 1f67 f73d
000001a0: 3b9b 9dbe 6047 3ebe e0d2 783d 0f92 ecbd
000001b0: c295 bebd cef6 b8bd 3895 843e 62c0 47bd
000001c0: 3223 39bd e953 333e cf22 e53d 87b9 10bd
000001d0: fa5a 363e 58cc 3f3d f30a 5b3e 6c71 a8bd
000001e0: 9b05 863e 9604 76bd 64a6 893e 7306 2a3e
000001f0: bcaf 61bd eafe b43d 0ca8 d53e a6e6 693e
00000200: 5ec7 5ebb 9c12 1e3d 68b5 693b 718e 383c
00000210: 5c32 dfbd 6abc 1bbd ecad 973d 8935 fb3d
00000220: 05b2 373e b605 dabc 59c3 b23d 7f09 b53c
00000230: 9512 bb3c cb73 343d 3d3a 02bd a436 99bc
00000240: 5773 05be dcde a73d e5d1 4fbe bd06 073d
00000250: b18c 3bbe 52dd bbbd 7247 18bd 05ea bfbd
00000260: 9b56 18bd b930 88bd 5add bebd 18a1 213d
00000270: 19df 90bc 6c3e 813c 350c 053d a1f1 db3d
00000280: 624b e5bb 8507 853d 20b9 e23e c2b9 32bd
00000290: 6621 4fbe 68d9 673e 4aa5 95bd 0f87 2d3e
000002a0: 6486 29be 11e2 f6bd 2ca4 493e 9283 cabc
000002b0: 65be 36be 7ade edbd 1d34 bf3c 22e9 243c
000002c0: a0ce 703c 3866 c8bd 869b b53e 322f 3f3d
000002d0: e9a5 903e 8fdd f8bd 4867 c53e 44f7 0abe
000002e0: 5b42 d53d 7db7 41be f6fc cdbd dfaf 06be
000002f0: 8a45 ba3c 6e9a ae3e 1c90 1e3f 17c8 cb3e
00000300: e0e3 0c3c a430 3fbd 4733 913d 5853 b53e
00000310: 7c7c 1cbe ac43 853d 9c80 2f3e 6e77 043e
00000320: b9a7 f03d e7f2 4dbd 6e82 813c 4fcd 94bb
00000330: d24f 9bbc d2a9 2c3e e748 d93c 2383 613e
00000340: 431c b43c b733 9abd d413 043e ae82 b2bc
00000350: e8c0 43bd bbf8 80be c580 733e 67a9 853e
00000360: 9086 5f3d fb5c d43e d64f bdbd 7149 b2bd
00000370: 4b21 123e 6af0 783e 1ee8 c43b cf9a 5abe
00000380: 3331 70bd d4b2 82bd de85 b83d 2679 a83e
00000390: a9a8 513e 6c8b ba3d 91d5 6f3d 6c76 123e
000003a0: d89d c23d 92a6 b43d 3936 b43d aa27 683d
000003b0: 5eed 8c3d a23a 113e 8a77 cb3d c71e 3d3e
000003c0: d675 d3bc 5a69 113e 107d 893a 4e25 d43d
000003d0: 5526 81bd 5436 f5bd ce4e 453e eb6e 6c3e
000003e0: 5368 5e3e 0ac6 9c3e 6abc a83d e845 713c
000003f0: 65c5 73bd 1cdf 363b 9d8d 4ebe 4d3d 0bbe

fc2_a.bias f4 [32]
0.19273573 0.09257444 0.2152491 0.10051207 0.0019904939 0.11584234 0.2362874 0.15418656
0.17499591 0.13898005 0.1562578 0.19387804 0.19457763 -0.0016304917 -0.005487942 -0.03873473
0.16426544 -0.014013489 0.0 -0.022522083 0.15342733 0.0 0.055583656 -0.037842486
0.11775056 -0.052290395 0.06497437 -0.0036369776 0.070729844 0.029193936 -0.00402855 0.09386184
00000000: 845c 453e ab97 bd3d 436a 5c3e 46d9 cd3d
00000010: f272 023b c03e ed3d 53f5 713e 15e3 1d3e
00000020: 2132 333e c950 0e3e 0b02 203e f787 463e
00000030: 5c3f 473e 39b6 d5ba 32d4 b3bb 4fa8 1ebd
00000040: 3335 283e d598 65bc 0000 0000 3b80 b8bc
00000050: 0e1c 1d3e 0000 0000 b0ab 633d b900 1bbd
00000060: 3527 f13d 742e 56bd 4811 853d 5c5a 6ebb
00000070: cfda 903d 1f28 ef3c ed01 84bb a33a c03d

fc3_a.weight f4 [5, 32]
0.37474436 -0.2505493 0.36180001 0.2801469 0.09529247 0.31397572 -0.015215586 -0.016289547
0.16170478 0.1096742 0.0048031122 0.14314066 0.15923798 0.116312005 0.040263593 -0.1062971
-0.048874117 0.029215405 0.03290429 0.029942721 0.095443815 0.048292514 -0.32810315 0.13826953
0.26324698 -0.14245945 -0.39407653 -0.08295065 -0.2936071 0.2585324 -0.04297158 0.5047046
-0.5001384 0.1540604 -0.318096 -0.01878874 -0.10390781 -0.02218075 -0.113303125 0.03393095
-0.14210649 -0.18083054 -0.021731952 -0.046570294 -0.18050723 0.09199906 0.13533403 0.057452194
-0.15363666 0.035953615 -0.03743468 -0.0518776 0.06868937 -0.108744405 -0.12561318 0.08857622
-0.09622198 0.1405453 0.14658047 -0.0439767 0.18035664 0.08432189 0.032783102 -0.23450063
0.007339045 0.5024952 0.19032414 -0.036719434 -0.005867226 0.014467643 0.19314574 0.09974784
0.17540397 -0.09558766 0.008741486 0.13905598 0.007506236 -0.0015675947 -0.17202224 0.18300055
0.25167403 -0.14606252 0.019016651 -0.14297354 0.23638928 0.18111853 0.15150495 -0.23914455
-0.10226181 0.09701521 0.39207712 -0.0613481 0.22109103 -0.14373411 -0.065418884 -0.516494
-0.086427115 -0.1288719 -0.16867797 -0.08703117 0.18231395 -0.19812551 -0.24231 -0.1624739
-0.10924112 -0.25353408 -0.15124446 -0.25876918 -0.25730148 -0.075536706 -0.19633114 0.009009029
-0.27782145 0.081737556 -0.009916112 0.012500249 -0.096219786 0.15569869 0.071737945 0.0627097
-0.1484324 -0.054579325 -0.21116239 0.051457994 0.097982876 -0.037873477 -0.09318179 0.16579154
0.015474536 -0.019708056 -0.03653562 -0.19338849 0.0027849723 0.109768875 -0.113634564 -0.06524036
-0.0141026 -0.105308846 -0.13613069 -0.056530826 -0.084486224 0.10539054 0.038758878 0.056811213
-0.07252735 -0.09751737 -0.038067274 -0.022063667 -0.11731835 0.13815413 0.077140294 -0.041628703
-0.013228133 0.037895374 -0.08817031 0.067783125 -0.19511004 0.034429226 -0.15745343 -0.18235923
00000000: 7ede bf3e ff47 80be da3d b93e 6a6f 8f3e
00000010: b328 c33d 6dc1 a03e cb4a 79bc a871 85bc
00000020: f095 253e de9c e03d 6d63 9d3b 7793 123e
00000030: 480f 233e fd34 ee3d 70eb 243d 4bb2 d9bd
00000040: 3a30 48bd 2555 ef3c a6c6 063d 704a f53c
00000050: 0c78 c33d 5fce 453d 23fd a7be 8796 0d3e
00000060: 4fc8 863e e4e0 11be 66c4 c9be 08e2 a9bd
00000070: ab53 96be 5c5e 843e f802 30bd 5234 013f
00000080: 1209 00bf 02c2 1d3e 7bdd a2be d8ea 99bc
00000090: 9ecd d4bd 67b4 b5bc 780b e8bd 2efb 0a3d
000000a0: 5d84 11be a42b 39be 3507 b2bc 7ec0 3ebd
000000b0: e3d6 38be 016a bc3d 0195 0a3e fe52 6b3d
000000c0: ee52 1dbe 1944 133d 1b55 19bd 9b7d 54bd
000000d0: 03ad 8c3d 63b5 debd bea0 00be 7367 b53d
000000e0: 0810 c5bd 1beb 0f3e 3119 163e ea20 34bd
000000f0: 69af 383e f4b0 ac3d 9347 063d ef20 70be
00000100: 5f7c f03b 87a3 003f 55e4 423e 1e67 16bd
00000110: dc41 c0bb b109 6d3c ffc7 453e 9848 cc3d
00000120: 199d 333e 77c3 c3bd 7338 0f3c b164 0e3e
00000130: dff6 f53b c077 cdba 9926 30be 7f64 3b3e
00000140: 6bdb 803e 6a91 15be cfc8 9b3c a867 12be
00000150: 0810 723e 2377 393e 1d24 1b3e 4fe2 74be
00000160: a46e d1bd e9af c63d 55be c83e 2548 7bbd
00000170: b065 623e 092f 13be 56fa 85bd f338 04bf
00000180: b300 b1bd fff6 03be ebb9 2cbe 663d b2bd
00000190: 82b0 3a3e 6ae1 4abe 1d20 78be 8f5f 26be
000001a0: cfb9 dfbd 38cf 81be d4df 1abe 657d 84be
000001b0: 05bd 83be fdb2 9abd 080b 49be 9b9a 133c
000001c0: 9d3e 8ebe 0566 a73d 3077 22bc d8cd 4c3c
000001d0: e10e c5bd 7a6f 1f3e 58eb 923d f16d 803d
000001e0: aafe 17be 928e 5fbd f43a 58be 9ec5 523d
000001f0: 3fab c83d 3821 1bbd 18d6 bebd 42c5 293e
00000200: e988 7d3c ca72 a1bc 60a6 15bd a207 46be
00000210: 1584 363b 81ce e03d 3db9 e8bd bd9c 85bd
00000220: 970e 67bc 2aac d7bd d865 0bbe de8c 67bd
00000230: 1d07 adbd ffd6 d73d a1c1 1e3d e0b2 683d
00000240: 3889 94bd 30b7 c7bd 6eec 1bbd ddbe b4bc
00000250: 9a44 f0bd 4778 0d3e bbfb 9d3d dc82 2abd
00000260: d0ba 58bc 2e38 1b3d a392 b4bd e1d1 8a3d
00000270: edca 47be a905 0d3d 793b 21be 61bc 3abe

fc3_a.bias f4 [5]
0.08522295 -0.06676659 0.10464585 -0.13442385 -0.057396322
00000000: 5f89 ae3d ecbc 88bd 9050 d63d 68a6 09be
00000010: 6818 6bbd

fc1_c.weight f4 [32, 2]
0.16361308 0.10270375 -0.11423205 0.02030538 -0.0111869 0.08461467 0.27107954 -0.019854836
-0.06811686 -0.027011868 -0.18099396 -0.0029392866 -0.14760932 0.14040305 0.09563091 -0.15894277
0.009147425 -0.15421821 -0.15954162 0.13655479 -0.010142046 0.072089486 0.030707097 -0.12908
0.103102624 0.1475728 0.093554944 0.09372128 -0.023937475 -0.13626355 -0.09434871 0.15573788
-0.065271735 0.12148095 0.020926442 -0.17243157 -0.04980061 -0.36939836 0.008721554 0.18967918
-0.047663175 -0.2142811 0.2009796 0.12853162 -0.038576953 -0.11703667 0.165198 -0.23826924
-0.10647727 0.10306263 0.008962502 -0.081195466 0.12877959 -0.05233293 0.18058857 0.063072
0.12123343 0.016341502 -0.12754849 -0.12417555 -0.09547474 -0.24801081 -0.16192149 0.0797237
00000000: 308a 273e 5856 d23d 7ef2 e9bd 7857 a63c
00000010: 4249 37bc 754a ad3d f0ca 8a3e 9ca6 a2bc
00000020: da80 8bbd fe47 ddbc 7b56 39be 0ca1 40bb
00000030: e626 17be d1c5 0f3e 23da c33d e5c1 22be
00000040: 15df 153c 61eb 1dbe e15e 23be 05d5 0b3e
00000050: d32a 26bc a7a3 933d 738d fb3c 8c2d 04be
00000060: 7827 d33d 531d 173e bc99 bf3d f1f0 bf3d
00000070: 8618 c4bc ac88 0bbe e539 c1bd c079 1f3e
00000080: 30ad 85bd 01cb f83d ee6d ab3c e791 30be
00000090: b9fb 4bbd c821 bdbe d9e4 0e3c 423b 423e
000000a0: 763a 43bd 816c 5bbe 99cd 4d3e cb9d 033e
000000b0: de02 1ebd ecb0 efbd aa29 293e dafc 73be
000000c0: c110 dabd 8012 d33d 75d7 123c cf49 a6bd
000000d0: ccde 033e 0e5b 56bd 36ec 383e e52b 813d
000000e0: 3c49 f83d 9dde 853c 129c 02be c04f febd
000000f0: 4388 c3bd 8cf6 7dbe bfce 25be 2e46 a33d

fc1_c.bias f4 [32]
-0.1091613 0.070288226 0.29364067 -0.2093793 0.16956067 0.046499364 0.0555319 -0.123677164
0.10995113 0.30833218 0.2976961 0.13111684 -0.12414069 -0.2580418 0.3197551 -0.09119942
0.17361984 0.04038467 0.11854307 0.017338062 -0.021710712 -0.1065412 0.064231865 -0.15628205
0.17545338 -0.094831295 -0.13360104 0.028890938 -0.19166058 0.07996949 0.011643173 0.076128036
00000000: f68f dfbd 46f3 8f3d 1258 963e 8767 56be
00000010: 50a1 2d3e 1e76 3e3d 6b75 633d 744a fdbd
00000020: 0f2e e13d b7dd 9d3e a06b 983e 7e43 063e
00000030: 793d febd 0e1e 84be f1b6 a33e c3c6 babd
00000040: 66c9 313e 656a 253d b6c6 f23d 8d08 8e3c
00000050: aada b1bc 4632 dabd ff8b 833d 6708 20be
00000060: 0daa 333e e936 c2bd b6ce 08be b0ac ec3c
00000070: ac42 44be 0bc7 a33d 02c3 3e3c 04e9 9b3d

fc2_c.weight f4 [32, 32]
0.087867424 0.012256648 0.0699821 0.13531025 -0.40256348 -0.11517573 0.21131065 -0.108521186
-0.0976444 -0.084716186 0.0200236 0.3447176 0.13653357 0.014770186 -0.54132783 0.104496546
-0.011720633 -0.15421724 -0.0037023865 -0.10074436 -0.18177557 0.020880885 -0.1002969 -0.115792885
0.03137306 -0.17801163 0.057270836 0.17458537 0.059380088 0.028008342 -0.16941406 0.33663726
-0.06532283 -0.199979 0.00275677 -0.16451715 0.08613966 -0.2179133 0.18080515 0.016473541
-0.2043768 -0.0004035432 0.23167686 0.3436837 -0.18313043 0.15911439 0.12990995 0.17302607
0.06382306 -0.19892111 0.22793795 -0.016424801 0.03835381 -0.028803177 0.1115824 0.0011938233
-0.046013363 0.07216381 -0.11342064 -0.12727138 -0.14271496 -0.25779688 0.12479498 0.282702
0.12646322 -0.17497173 0.2858227 -0.14072134 0.17669405 -0.100556746 -0.12625425 -0.062290378
-0.0022401449 -0.05287011 0.26828584 -0.4755913 0.089291595 0.00024024409 0.4516075 -0.12878989
0.20776886 -0.023697466 -0.06423311 -0.045001086 0.25354218 0.03548222 -0.04190878 -0.15191889
0.02033726 -0.001080965 -0.10560775 0.09779025 -0.2612025 -0.050856635 0.019440487 -0.28763172
-0.0979514 0.061787345 0.08301317 0.10890537 -0.21352905 0.010143999 0.20644145 -0.1177876
0.010861646 -0.027982194 0.11314469 0.074576475 0.05966837 0.077078365 -0.36523634 0.13872944
-0.30653992 -0.24381614 0.08706267 0.16664393 -0.052512914 0.14041936 0.11385378 -0.14998443
-0.1768878 -0.35092366 0.08988469 -0.07642562 0.093417734 -0.1598342 -0.0060534705 0.23890433
-0.0003168697 -0.007977476 -0.22077323 0.16935143 0.09960518 -0.03751781 -0.107738554 0.14881384
-0.011139335 0.1484206 -0.032462362 -0.3785896 0.10488584 0.15299827 0.32772878 -0.05401028
-0.0034090301 0.07816624 0.14367376 -0.06120283 0.12520196 0.22282256 -0.014171986 0.20543852
0.17785025 -0.004423075 0.07966273 0.10434804 0.049118027 -0.1439985 -0.17129792 -0.06640492
0.034170426 -0.008594432 -0.13858259 0.10934292 -0.06116919 0.010602513 -0.047862887 -0.18992192
-0.22471538 -0.40893936 0.03628493 0.22759397 0.1900691 -0.23471822 0.09749317 -0.06747415
0.035394274 -0.11906864 -0.20277102 -0.14976406 0.011100471 -0.06316962 0.03385144 -0.028459202
-0.31069413 0.06492451 0.0955817 0.089468665 0.07283441 0.19464594 -0.024026299 -0.0056288103
-0.050214883 -0.050926007 -0.019348724 -0.12644963 -0.039664067 -0.013105166 -0.074706875 -0.0046868077
0.25452343 -0.024526663 -0.018474447 -0.074161746 0.12027605 -0.019492058 0.0031488289 0.043241862
-0.10410261 0.17840655 0.075303204 0.12160649 -0.18077354 0.024623072 0.04922265 -0.004914939
-0.1709109 -0.010282533 -0.124653235 -0.20072101 -0.01500465 -0.19149809 -0.2099533 -0.14464177
-0.0647453 -0.034281366 0.083340906 -0.12314592 0.14816411 0.0882543 -0.25456315 -0.029030485
0.13742104 0.0788464 0.013022019 -0.082764395 -0.032748953 -0.0856358 0.45285115 -0.16468126
0.0055760033 0.17217226 0.23373191 0.25199434 0.0682153 -0.29346114 -0.09573703 0.010264028
0.026336718 0.0592394 -0.1792083 -0.15206346 -0.18625088 -0.032341983 0.08498212 -0.1500108
00000000: d6f3 b33d 1cd0 483c c652 8f3d c58e 0a3e
00000010: cd1c cebe 41e1 ebbd d261 583e 5b40 debd
00000020: caf9 c7bd ae7f adbd 8808 a43c d37e b03e
00000030: 75cf 0b3e a6fe 713c 7694 0abf 4902 d63d
00000040: e607 40bc 20eb 1dbe bda3 72bb 0f53 cebd
00000050: 6023 3abe 640e ab3c 7668 cdbd d224 edbd
00000060: 0a81 003d ae48 36be d394 6a3d 82c6 323e
00000070: 8938 733d c071 e53c e17a 2dbe b85b ac3e
00000080: fac7 85bd 4cc7 4cbe edaa 343b 2f77 28be
00000090: fd69 b03d aa24 5fbe fc24 393e 85f3 863c
000000a0: 2748 51be a792 d3b9 b33c 6d3e 4ff7 af3e
000000b0: 8b86 3bbe e2ee 223e 1d07 053e bf2d 313e
000000c0: aab5 823d fab1 4bbe 9168 693e 4e8d 86bc
000000d0: e218 1d3d a4f4 ebbc 5085 e43d 107a 9c3a
000000e0: 8278 3cbd 9fca 933d 1549 e8bd 6e53 02be
000000f0: df23 12be f4fd 83be 8394 ff3d 51be 903e
00000100: 937f 013e ca2b 33be 5a57 923e 4119 10be
00000110: 49ef 343e b2f0 cdbd cb48 01be 3224 7fbd
00000120: 65cf 12bb 548e 58bd c35c 893e b480 f3be
00000130: 83de b63d 08ea 7b39 1939 e73e 7fe1 03be
00000140: 5cc1 543e 3021 c2bc a68c 83bd 0f53 38bd
00000150: 48d0 813e ce55 113d 8aa8 2bbd a090 1bbe
00000160: 539a a63c 2baf 8dba e048 d8bd 4146 c83d
00000170: 56bc 85be 0c4f 50bd a841 9f3c 7744 93be
00000180: be9a c8bd ba14 7d3d cf02 aa3d c709 df3d
00000190: 5ca7 5abe 0433 263c 6365 533e a03a f1bd
000001a0: 0cf5 313c ea3a e5bc 67b8 e73d 8dbb 983d
000001b0: d266 743d 43db 9d3d 4200 bbbe 170f 0e3e
000001c0: cdf2 9cbe f0aa 79be ea4d b23d b5a4 2a3e
000001d0: c817 57bd 18ca 0f3e 2c2c e93d 8595 19be
000001e0: 1322 35be 44ac b3be 7715 b83d 0985 9cbd
000001f0: cc51 bf3d 94ab 23be 315c c6bb 56a3 743e
00000200: 8821 a6b9 f6b3 02bc 6112 62be 766a 2d3e
00000210: cdfd cb3d 46ac 19bd 08a6 dcbd a862 183e
00000220: c281 36bc 92fb 173e 41f7 04bd 7fd6 c1be
00000230: 63ce d63d 94ab 1c3e 11cc a73e e239 5dbd
00000240: 096a 5fbb 9f15 a03d 371f 133e d2af 7abd
00000250: f134 003e 992b 643e 9e31 68bc 7a5e 523e
00000260: 601e 363e 71ef 90bb 3726 a33d 6db4 d53d
00000270: fc2f 493d 5874 13be b968 2fbe 4dff 87bd
00000280: 4af6 0b3d a9cf 0cbc 98e8 0dbe 2eef df3d
00000290: 8b8c 7abd 2ab6 2d3c e00b 44bd e47a 42be
000002a0: ca1b 66be 8060 d1be 829f 143d 650e 693e
000002b0: 79a1 423e f959 70be 80aa c73d e32f 8abd
000002c0: 96f9 103d 42da f3bd 35a3 4fbe c05b 19be
000002d0: c0de 353c 135f 81bd cfa7 0a3d 4623 e9bc
000002e0: 4d13 9fbe 24f7 843d 57c0 c33d 593b b73d
000002f0: 352a 953d 4451 473e cdd2 c4bc e271 b8bb
00000300: 1fae 4dbd ca97 50bd 3781 9ebc 037c 01be
00000310: ca76 22bd 0db7 56bc ebff 98bd cb93 99bb
00000320: e550 823e 24ec c8bc b957 97bc 1de2 97bd
00000330: 4a53 f63d cfad 9fbc 955c 4e3b 611e 313d
00000340: c033 d5bd 35b0 363e 9138 9a3d d30c f93d
00000350: b31c 39be 53b6 c93c b09d 493d 7f0d a1bb
00000360: 4403 2fbe 1278 28bc 324a ffbd cf89 4dbe
00000370: 10d6 75bc 1318 44be fffd 56be f91c 14be
00000380: 2f99 84bd 9e6a 0cbd a3ae aa3d ee33 fcbd
00000390: 55b8 173e acbe b43d 1a56 82be 57d1 edbc
000003a0: 1ab8 0c3e 397a a13d 4e5a 553c 6180 a9bd
000003b0: c423 06bd d361 afbd 1bdc e73e 34a2 28be
000003c0: e8b6 b63b ed4d 303e 6b57 6f3e 6705 813e
000003d0: 77b4 8b3d 8a40 96be c711 c4bd 742a 283c
000003e0: 1ac0 d73c 03a5 723d 6182 37be 86b6 1bbe
000003f0: 8db8 3ebe 0779 04bd 1b0b ae3d 6e9c 19be

fc2_c.bias f4 [32]
-0.08219181 0.030083794 0.10918541 -0.00963511 0.084933795 -0.008159545 0.0 0.1428519
0.088448174 -0.20212658 -0.005969983 0.09495502 0.10184579 0.12178119 0.07617124 0.062792905
0.13393147 -0.004500438 -0.026536062 0.08047468 0.023020057 0.12385549 -0.007085911 -0.06267522
0.22702947 0.06926783 0.087240495 -0.016380657 0.09247416 0.06820757 -0.002218865 0.06751281
00000000: 2e54 a8bd 4a72 f63c 9a9c df3d 95dc 1dbc
00000010: c5f1 ad3d 9daf 05bc 0000 0000 c547 123e
00000020: 5124 b53d 45fa 4ebe d99f c3bb c777 c23d
00000030: 8794 d03d 6b68 f93d abff 9b3d 9199 803d
00000040: 5525 093e 6978 93bb 2862 d9bc e9cf a43d
00000050: 8f94 bc3c f2a7 fd3d ee30 e8bb de5b 80bd
00000060: 6a7a 683e 4bdc 8d3d 25ab b23d ba30 86bc
00000070: 1863 bd3d 69b0 8b3d 616a 11bb 2844 8a3d

fc3_c.weight f4 [1, 32]
-0.12567249 -0.44835746 0.25713816 -0.46731094 0.14075671 -0.2798063 0.044525247 0.26898155
0.09986562 0.24312066 -0.32167754 -0.31697068 -0.32087994 0.4877332 -0.44813442 -0.4006227
0.1575364 -0.16118555 -0.17339359 0.27590838 -0.16139431 0.20174675 0.029023597 -0.2252012
0.7289301 -0.254922 0.21830998 -0.21810766 0.18955925 0.16670038 0.019153733 0.71857303
00000000: 4ab0 00be 1c8f e5be 9da7 833e 6143 efbe
00000010: 8722 103e c542 8fbe 1b60 363d f3b7 893e
00000020: 5986 cc3d 9ff4 783e ebb2 a4be fb49 a2be
00000030: 604a a4be 2ab8 f93e e071 e5be 6b1e cdbe
00000040: 3951 213e d30d 25be 178e 31be dd43 8d3e
00000050: 8d44 25be b396 4e3e e5c2 ed3c 259b 66be
00000060: 2a9b 3a3f 2385 82be a78c 5f3e 9d57 5fbe
00000070: d21b 423e 81b3 2a3e 4ae8 9c3c 67f4 373f
