assignment1/task_3_1.pt (torch, 13313 bytes, 11 tensors)

fc1_a.weight f4 [32, 2]
-0.030414352 0.19456835 0.1058309 0.05903809 -0.008950297 0.0007499956 0.11309516 -0.08930405
0.07374979 -0.16356972 0.07201115 0.15049088 -0.042703945 -0.11539636 -0.021594275 -0.2430944
0.10377092 -0.20369686 0.08965852 -0.02150774 0.023608722 -0.044691492 -0.13152504 -0.010646556
-0.0096790185 -0.031108707 0.1410246 -0.1433181 -0.078742556 0.27892205 -0.12376637 -0.17681359
0.12011882 0.030776924 0.16251759 0.07674172 -0.1076303 0.09294479 -0.24266519 -0.13294987
-0.05870936 0.20407051 -0.053220954 0.025409922 -0.08743822 -0.050598927 -0.18733068 -0.09572833
-0.1004994 0.096201524 0.06196191 -0.056846905 0.10928922 0.108183935 0.059818625 -0.15860736
-0.18721288 -0.030540813 -0.025627065 -0.13134561 -0.16183226 0.027562331 -0.14859872 0.09839112
00000000: 8527 f9bc ed3c 473e dfbd d83d edd1 713d
00000010: 44a4 12bc 5a9b 443a 6f9e e73d 0be5 b6bd
00000020: 210a 973d d27e 27be 957a 933d 481a 1a3e
00000030: 55ea 2ebd ed54 ecbd 7ae6 b0bc bded 78be
00000040: d985 d43d e995 50be e39e b73d 0031 b0bc
00000050: 1467 c13c 6d0e 37bd 80ae 06be e46e 2ebc
00000060: bf94 1ebc b0d7 febc c168 103e fbc1 12be
00000070: c743 a1bd dfce 8e3e 3979 fdbd 9f0e 35be
00000080: db00 f63d e31f fc3c 036b 263e c32a 9d3d
00000090: 466d dcbd d759 be3d 397d 78be 0324 08be
000000a0: 3a79 70bd dcf7 503e 37fe 59bd 7828 d03c
000000b0: cf12 b3bd d240 4fbd 9dd3 3fbe 370d c4bd
000000c0: a1d2 cdbd 4e05 c53d c6cb 7d3d 4dd8 68bd
000000d0: 07d3 df3d 8a8f dd3d 6004 753d f869 22be
000000e0: bcb4 3fbe ba30 fabc daef d1bc 777f 06be
000000f0: 5bb7 25be 66ca e13c 432a 18be 4981 c93d

fc1_a.bias f4 [32]
0.35851485 0.0036464462 0.39072564 0.2525154 -0.035541207 0.19209677 -0.20575957 0.30034232
0.03912173 0.25628752 0.29857156 -0.15181608 0.37648815 0.108121276 0.27626523 0.28288552
0.19795337 0.029234238 0.27654067 0.29418108 -0.06155161 0.07676511 0.2603348 -0.1785372
0.17923199 0.25033018 0.037461612 0.07215441 -0.23065893 0.30853125 0.27598307 0.2374737
00000000: 428f b73e 37f9 6e3b 310d c83e b349 813e
00000010: a893 11bd 04b5 443e a3b2 52be 78c6 993e
00000020: 1b3e 203d 1e38 833e 5fde 983e ad75 1bbe
00000030: 0ec3 c03e b06e dd3d a372 8d3e 5fd6 903e
00000040: 4ab4 4a3e a47c ef3c bd96 8d3e e79e 963e
00000050: 8a1d 7cbd 0737 9d3d 9a4a 853e 75d2 36be
00000060: 9788 373e 472b 803e 5971 193d b1c5 933d
00000070: db31 6cbe cff7 9d3e a74d 8d3e 4e2c 733e

fc2_a.weight f4 [32, 32]
0.06828156 -0.05505317 0.07345697 -0.032817252 0.11955715 0.10375034 -0.032370955 0.13442045
-0.14967273 0.15417798 -0.15730688 -0.05844348 -0.1209626 0.11722131 -0.08893772 0.09518974
-0.092963286 -0.010274782 0.08028914 -0.06420802 -0.019833986 -0.017197516 0.059100375 -0.008096673
-0.055749018 -0.07307361 0.034579013 -0.13003244 -0.034591053 -0.061751887 0.034849677 -0.12676045
-0.021259343 0.03216211 0.34548965 0.1852749 -0.15770783 -0.03460838 -0.014991411 0.060347863
0.017411359 0.20362608 -0.028400147 0.15585597 0.1928632 -0.08338987 0.10737114 0.070374824
0.07938593 0.021725612 -0.06444251 0.17650428 -0.032132857 0.02313586 0.08275696 0.028651437
0.28321263 0.3251551 -0.12484608 0.04471207 -0.046007823 0.10393809 0.0147207 -0.0033751177
-0.06355743 0.012879457 -0.049644556 -0.26278317 -0.05726529 0.16463952 0.1699029 -0.03855405
-0.06606133 0.019751722 -0.06388022 -0.039104406 -0.21709983 -0.05888787 0.022408733 0.08001445
-0.079054855 0.03230993 0.14692377 0.05819185 -0.089197576 -0.07185568 0.10836778 0.13305953
-0.024962569 0.00932711 -0.11801776 -0.01355979 -0.054123748 0.04335838 0.1344689 0.08434592
-0.08243025 0.057700682 -0.03255193 -0.025980378 0.032889724 0.016807998 0.24694696 0.10142268
-0.21275009 -0.14183766 0.08140907 -0.13393581 -0.11946316 0.023498058 0.16844611 -0.08031098
-0.028021969 0.18169747 -0.026477996 -0.036887076 0.025242416 -0.07771223 -0.054191105 -0.00050777657
0.15575339 -0.0006174321 0.27499935 0.14023268 -0.07724301 -0.047687214 0.01673016 -0.064148396
-0.09033356 0.028057387 -0.074577905 0.038900398 -0.060500022 -0.05063654 0.108156994 0.15838268
0.22789381 -0.024334416 0.094544314 0.0033417144 0.048330605 0.0814442 -0.04249841 -0.003544685
-0.13292775 0.07107778 -0.23381926 0.04797486 -0.2088794 -0.14666125 -0.040710807 -0.07608791
-0.067629986 -0.036361355 -0.10655469 0.08429378 -0.029892895 0.048075486 0.024562387 0.06766359
-0.006646601 0.08212833 0.35153052 0.08896155 -0.24685922 0.23730843 -0.07179576 0.1775928
-0.05687337 -0.02164429 0.2699553 -0.01993795 -0.05244359 0.0034054006 -0.022477144 -0.039921295
0.06622188 -0.070715494 0.251133 0.059569627 0.13893417 -0.20699336 0.09945041 -0.07224297
0.033473447 -0.07203285 -0.08428977 -0.15666905 0.023941545 0.2067903 0.19000255 0.16231725
0.13764055 -0.009226082 0.3135436 0.24424425 -0.106964454 0.13820393 -0.12555344 0.12033981
0.12020422 -0.0015418862 0.08624879 0.033635776 0.31226268 -0.00028969775 0.13320152 0.06337243
0.10256803 -0.012538719 0.18109855 0.027536925 0.012372347 -0.038658418 0.004152331 -0.016662171
0.11938816 0.25771058 -0.04476056 -0.049686223 0.16898234 0.15352774 0.08029038 0.0014129144
0.03186076 -0.04256196 0.52107453 0.21521492 0.2007323 0.15859757 -0.1846429 0.16401637
-0.021316059 0.10638877 0.12402846 0.097127326 0.33836278 -0.0383379 0.17087534 0.079414345
0.018363008 0.1792965 0.038494997 0.1519434 -0.01800031 0.06329445 0.07676769 -0.02826368
0.2555477 0.17138827 0.10777808 0.025083361 -0.023244377 0.0039468645 -0.0034811806 0.12006796
00000000: 34d7 8b3d 6f7f 61bd 9c70 963d 626b 06bd
00000010: 61da f43d 0f7b d43d 6897 04bd 84a5 093e
00000020: cf43 19be d5e0 1d3e 0e15 21be 6e62 6fbd
00000030: 3dbb f7bd ba11 f03d fb24 b6bd d7f2 c23d
00000040: 8963 bebd 8f57 28bc a26e a43d 7f7f 83bd
00000050: e27a a2bc cee1 8cbc 3c13 723d e8a7 04bc
00000060: 1559 64bd 9ea7 95bd b9a2 0d3d 3927 05be
00000070: 59af 0dbd 8cef 7cbd 89be 0e3d 7ecd 01be
00000080: 1328 aebc 6bbc 033d 05e4 b03e b4b8 3d3e
00000090: 297e 21be 84c1 0dbd 899e 75bc 522f 773d
000000a0: 44a2 8e3c 5b83 503e 6da7 e8bc b598 1f3e
000000b0: ee7d 453e 4fc8 aabd 66e5 db3d ad20 903d
000000c0: 1795 a23d e9f9 b13c 6ffa 83bd 8abd 343e
000000d0: be9d 03bd 6a87 bd3c 7b7c a93d 6bb6 ea3c
000000e0: 3f01 913e bb7a a63e 4daf ffbd 0124 373d
000000f0: b372 3cbd 7edd d43d 172f 713c 1431 5dbb
00000100: 662a 82bd 5c04 533c 1758 4bbd 848b 86be
00000110: 028f 6abd 4397 283e 07fb 2d3e daea 1dbd
00000120: 2a4b 87bd 5dce a13c a2d3 82bd f12b 20bd
00000130: 6b4f 5ebe 6834 71bd 8592 b73c 9ede a33d
00000140: 83e7 a1bd 6b57 043d 2f73 163e 945a 6e3d
00000150: 38ad b6bd 1229 93bd edef dd3d c240 083e
00000160: 4d7e ccbc bcd0 183c 4cb3 f1bd e229 5ebc
00000170: ddb0 5dbd 8f98 313d 37b2 093e 8ebd ac3d
00000180: 31d1 a8bd 8d57 6c3d 2c55 05bd cdd4 d4bc
00000190: 60b7 063d edb0 893c aadf 7c3e b2b6 cf3d
000001a0: 29db 59be e43d 11be ccb9 a63d 7826 09be
000001b0: 1aa9 f4bd 007f c03c 237d 2c3e 157a a4bd
000001c0: 548e e5bc e70e 3a3e 62e8 d8bc e716 17bd
000001d0: 2fc9 ce3c 9727 9fbd 7ef7 5dbd 4f1c 05ba
000001e0: d17d 1f3e 2bdb 21ba b7cc 8c3e 2899 0f3e
000001f0: 9531 9ebd ab53 43bd b00d 893c 3c60 83bd
00000200: cd00 b9bd 9bd8 e53c 4dbc 98bd 0656 1f3d
00000210: dfce 77bd 4368 4fbd 6a81 dd3d 122f 223e
00000220: ff5c 693e f858 c7bc 73a0 c13d aa00 5b3b
00000230: 50f6 453d 37cc a63d d012 2ebd f24d 68bb
00000240: 361e 08be 3a91 913d 516e 6fbe 4981 443d
00000250: 7be4 55be 5e2e 16be 60c0 26bd fad3 9bbd
00000260: 9781 8abd a5ef 14bd 5839 dabd 38a2 ac3d
00000270: f2e1 f4bc cdea 443d 0f37 c93c 3593 8a3d
00000280: bbcb d9bb e632 a83d cffb b33e 7931 b63d
00000290: aac8 7cbe fb00 733e a809 93bd e3da 353e
000002a0: 0df4 68bd 5e4f b1bc 9537 8a3e e954 a3bc
000002b0: 17cf 56bd 242d 5f3b fd21 b8bc 8384 23bd
000002c0: 569f 873d 49d3 90bd 8194 803e 48ff 733d
000002d0: c244 0e3e 11f6 53be a8ac cb3d 1ff4 93bd
000002e0: 741b 093d f585 93bd 1da0 acbd da6d 20be
000002f0: 0f21 c43c d6c0 533e 0790 423e 7e36 263e
00000300: a5f1 0c3e fe28 17bc c988 a03e 2a1b 7a3e
00000310: 2e10 dbbd 5585 0d3e 1591 00be b874 f63d
00000320: a12d f63d 1e19 caba 35a3 b03d abc5 093d
00000330: e5e0 9f3e 93e2 97b9 fb65 083e 68c9 813d
00000340: 300f d23d 336f 4dbc e671 393e 1e95 e13c
00000350: 62b5 4a3c 4a58 1ebd 4710 883b 1b7f 88bc
00000360: c881 f43d a4f2 833e d956 37bd c883 4bbd
00000370: b509 2d3e 6036 1d3e 486f a43d 8a31 b93a
00000380: 6e80 023d 7355 2ebd 2465 053f 4d61 5c3e
00000390: c58c 4d3e 6767 223e 0713 3dbe e8f3 273e
000003a0: 049f aebc 5be2 d93d a202 fe3d b1ea c63d
000003b0: e33d ad3e 3408 1dbd f2f9 2e3e fda3 a23d
000003c0: 056e 963c 8099 373e eeac 1d3d 0d97 1b3e
000003d0: 6375 93bc 85a0 813d 6138 9d3d 3c89 e7bc
000003e0: 26d7 823e 6880 2f3e c1ba dc3d 9f7b cd3c
000003f0: fe6a bebc b354 813b 8524 64bb 31e6 f53d

fc2_a.bias f4 [32]
-0.017156865 0.1825003 -0.09538261 -0.010630294 -0.028811332 0.09102162 0.25481862 0.23787028
0.016309725 -0.029425109 0.26330405 0.21541952 0.23409367 0.19734614 0.26848483 0.23274313
0.017687045 0.201187 0.0 -0.011837372 0.2215864 0.005579738 -0.012499627 0.18837062
0.2253525 0.21824186 0.1805265 0.04760899 0.08913622 0.25302854 0.3060927 0.19331218
00000000: 8e8c 8cbc 5ce1 3a3e f557 c3bd af2a 2ebc
00000010: be05 ecbc 8b69 ba3d 9677 823e 4494 733e
00000020: f99b 853c ed0c f1bc cacf 863e ef96 5c3e
00000030: 40b6 6f3e 1b15 4a3e d876 893e 3754 6e3e
00000040: 6ce4 903c f703 4e3e 0000 0000 89f1 41bc
00000050: 8ce7 623e 3cd6 b63b 3ccb 4cbc 3ae4 403e
00000060: cec2 663e cb7a 5f3e f0db 383e a501 433d
00000070: 0d8d b63d f58c 813e 2fb8 9c3e a1f3 453e

fc3_a.weight f4 [5, 32]
-0.02215067 -0.14442857 0.040788 0.16543648 0.043474376 0.101630434 -0.116844326 -0.11882835
-0.022767069 -0.035532907 -0.11640515 -0.045800652 -0.16084698 -0.0051048 -0.117352225 -0.2166232
-0.10211096 -0.08153389 0.03290429 -0.026049715 -0.032288346 0.050739918 -0.14508995 0.020747455
-0.05574851 -0.17751116 -0.29507244 -0.110752076 -0.14966625 0.02131498 -0.2358075 -0.069872685
-0.14263411 0.23641397 -0.014555421 0.014583043 -0.09513723 0.12845694 0.14684333 0.14930275
0.12612364 -0.10499256 0.16131787 0.25288606 0.1871974 0.20379186 0.4107386 0.41692466
-0.0013552251 0.22732086 -0.03743468 -0.054438308 0.26172262 -0.12762202 -0.23220678 0.1540527
0.14839035 0.25457337 0.20581998 -0.03953757 0.12591071 0.43097284 0.4651964 0.22381552
0.07583057 0.17316657 0.19086194 -0.019683672 -0.040133435 0.042990733 -0.072258465 -0.019118875
0.1460115 -0.10121082 -0.099127635 0.006838777 -0.14520937 -0.080032565 -0.27604398 -0.0017242043
0.094038434 -0.27019745 0.019016651 -0.13622917 0.07791985 0.19074933 0.036571514 -0.16896453
-0.11627036 0.02276371 0.12107069 -0.10542503 0.02143832 -0.2769487 -0.25110242 -0.2592492
0.045931783 0.018685106 -0.047548164 -0.019184215 0.27559173 -0.1592337 -0.08409558 -0.082536526
-0.07153107 -0.15073854 -0.12369567 -0.30391252 -0.24486625 -0.044155035 -0.34415254 -0.24837045
-0.1572492 0.063157186 -0.009916112 0.08997756 0.019978996 0.17274915 0.1120061 0.050806154
-0.07143262 -0.11974293 -0.14212461 0.18420513 0.14271303 -0.13774993 -0.3365996 0.098280065
0.031609215 -0.004174184 0.03234808 -0.17680211 -0.023499794 0.1284677 -0.11252619 -0.090751104
-0.03636759 -0.06461307 -0.15392835 -0.11929016 -0.09164824 0.070134856 -0.0641191 -0.07842489
-0.03828993 -0.18801293 -0.038067274 -0.048324235 -0.11358725 0.11896013 0.081469834 -0.08653506
-0.040863585 0.0044152797 -0.11709427 0.012644996 -0.20140922 -0.09310156 -0.31418413 -0.19112286
00000000: 5275 b5bc 15e5 13be 5111 273d 2e68 293e
00000010: 3012 323d 9e23 d03d 144c efbd 475c f3bd
00000020: 0182 babc f48a 11bd d365 eebd 7799 3bbd
00000030: 12b5 24be 2b46 a7bb 5d56 f0bd 79d2 5dbe
00000040: 8d1f d1bd 3dfb a6bd a6c6 063d 3666 d5bc
00000050: c940 04bd a9d4 4f3d 7692 14be 91f6 a93c
00000060: 8d58 64bd 7cc5 35be bc13 97be fcd1 e2bd
00000070: 1c42 19be c19c ae3c 8577 71be 6919 8fbd
00000080: ad0e 12be 8116 723e dc79 6ebc b7ed 6e3c
00000090: 4fd7 c2bd 378a 033e 195e 163e d2e2 183e
000000a0: 8e26 013e 5706 d7bd 8330 253e 487a 813e
000000b0: adb0 3f3e d0ae 503e 544c d23e 2677 d53e
000000c0: cfa1 b1ba cdc6 683e 1b55 19bd b4fa 5ebd
000000d0: 8200 863e 59af 02be 9dc7 6dbe febf 1d3e
000000e0: a4f3 173e 7157 823e 79c2 523e 26f2 21bd
000000f0: bdee 003e 79a8 dc3e 392e ee3e e52f 653e
00000100: 0f4d 9b3d 9452 313e 5071 433e a73f a1bc
00000110: f562 24bd 0d17 303d 3ffc 93bd 309f 9cbc
00000120: 0a84 153e 9e47 cfbd 6e03 cbbd d217 e03b
00000130: c4b1 14be 1de8 a3bd a355 8dbe b2fe e1ba
00000140: 3997 c03d 5257 8abe cfc8 9b3c a97f 0bbe
00000150: 7194 9f3d cb53 433e 03cc 153d 0a05 2dbe
00000160: 281f eebd f67a ba3c e9f3 f73d 14e9 d7bd
00000170: 6a9f af3c 38cc 8dbe 7f90 80be 50bc 84be
00000180: f722 3c3d 8211 993c ddc1 42bd 3728 9dbc
00000190: 5c1a 8d3e 290e 23be 4e3a acbd e908 a9bd
000001a0: e27e 92bd 345b 1abe 2854 fdbd 6c9a 9bbe
000001b0: 38be 7abe e9db 34bd c334 b0be d354 7ebe
000001c0: ef05 21be 8e58 813d 3077 22bc 2846 b83d
000001d0: feaa a33c 27e5 303e 7463 e53d 1d1a 503d
000001e0: 444b 92bd c83b f5bd 1d89 11be 45a0 3c3e
000001f0: 5d23 123e 510e 0dbe c856 acbe 0f47 c93d
00000200: aa78 013d 98c7 88bb 6c7f 043d 9d0b 35be
00000210: a482 c0bc 098d 033e 2274 e6bd b7db b9bd
00000220: 2ff6 14bd db53 84bd 659f 1dbe 664e f4bd
00000230: 13b2 bbbd dda2 8f3d e050 83bd 3b9d a0bd
00000240: e7d5 1cbd 7686 40be 6eec 1bbd a2ef 45bd
00000250: 6fa0 e8bd 5ea1 f33d a8d9 a63d 4b39 b1bd
00000260: 9360 27bd 0dae 903b 1fcf efbd f52c 4f3c
00000270: 383e 4ebe 08ac bebd bedc a0be b6b5 43be

fc3_a.bias f4 [5]
-0.09275017 0.19935103 -0.101753965 -0.090402 -0.09913335
00000000: cdf3 bdbd ad22 4c3e 6264 d0bd af24 b9bd
00000010: 6d06 cbbd

fc1_c.weight f4 [32, 2]
0.017655598 0.012215774 -0.09838868 -0.00309986 -0.0695961 0.096523814 0.35639596 -0.12659796
0.017930482 0.0020218063 -0.13297623 -0.09471225 -0.09250236 -0.1039367 0.27119935 -0.13793953
0.014703044 -0.14934064 -0.2504397 0.14532964 0.01738547 0.16563253 -0.29395378 -0.12236486
0.017703041 0.034814827 0.04349838 0.014703365 0.018215159 0.0053130556 -0.015083788 0.35170808
-0.09278615 0.09820079 0.016608618 -0.06676506 -0.0031104109 -0.47558308 0.016958969 0.1922398
0.012970763 -0.1714541 0.13918841 -0.08317282 0.014950436 -0.09322218 0.27924713 -0.22696374
-0.058154475 0.26435918 0.017761257 -0.060953118 0.14795479 -0.072761536 0.12780641 0.02756726
0.15081191 -0.10160249 0.01566409 -0.1129024 0.013418985 -0.25469577 -0.0011447802 -0.0745558
00000000: 79a2 903c ab24 483c 0180 c9bd 0527 4bbb
00000010: 6688 8ebd 47ae c53d 8879 b63e e5a2 01be
00000020: f2e2 923c 4880 043b ec2a 08be 7ff8 c1bd
00000030: e171 bdbd c4dc d4bd a4da 8a3e 0540 0dbe
00000040: 09e5 703c c1ec 18be a239 80be 4bd1 143e
00000050: f96b 8e3c 939b 293e 1c81 96be 6d9a fabd
00000060: f805 913c fe99 0e3d 5b2b 323d 62e6 703c
00000070: f537 953c 2419 ae3b fe21 77bc 1513 b43e
00000080: aa06 bebd 7f1d c93d cc0e 883c 1fbc 88bd
00000090: 09d8 4bbb a07f f3be 89ed 8a3c 83da 443e
000000a0: 5383 543c aa91 2fbe 6887 0e3e 8356 aabd
000000b0: acf2 743c 45eb bebd 7bf9 8e3e 2f69 68be
000000c0: 6333 6ebd 165a 873e 0e80 913c faa9 79bd
000000d0: 7681 173e 0004 95bd afdf 023e bcd4 e13c
000000e0: 706e 1a3e f714 d0bd fa51 803c 6039 e7bd
000000f0: 4ddb 5b3c 7c67 82be 730c 96ba b6b0 98bd

fc1_c.bias f4 [32]
0.70585275 0.44905296 0.5436386 0.11644514 0.716506 0.45627213 0.37876004 0.146838
0.62557346 0.3819231 0.7066858 -0.63485074 0.70791644 -0.03071839 0.7273257 0.5259504
0.55045885 0.67691153 0.502353 0.69534487 0.63054585 0.24726602 0.6324986 0.17076854
0.55496436 0.7187564 0.27416894 0.23749816 0.2695882 0.65299463 0.60341084 0.4878272
00000000: c4b2 343f 45ea e53e e62b 0b3f ca7a ee3d
00000010: f06c 373f 809c e93e d6ec c13e b35c 163e
00000020: 9525 203f 6d8b c33e 5ce9 343f 9485 22bf
00000030: 033a 353f 22a5 fbbc 0432 3a3f afa4 063f
00000040: dfea 0c3f 134a 2d3f 359a 003f 1f02 323f
00000050: 746b 213f 4e33 7d3e 6eeb 213f f3dd 2e3e
00000060: 2512 0e3f 6b00 383f df5f 8c3e b832 733e
00000070: 7707 8a3e a82a 273f 2279 1a3f 7dc4 f93e

fc2_c.weight f4 [32, 32]
0.62451005 0.09286739 0.29811236 -0.0078789815 0.38186228 -0.061624262 0.08406888 -0.17950852
0.265325 0.117503114 0.5412475 -0.25358787 0.68418914 -0.0066906344 0.5001584 0.2827027
0.27885753 0.4578441 0.10107345 0.39779755 0.16196582 -0.053526215 0.30895698 -0.20309159
0.31518435 0.35332555 0.027168093 0.15157656 -0.03235199 0.34923625 0.113359965 0.28217846
-0.021282226 -0.09158957 -0.31065097 0.0035083615 -0.04364731 -0.079999596 0.081534825 0.042224385
-0.097239584 -0.28215146 0.21246114 0.19818513 -0.032091167 0.12151724 -0.10145836 -0.06160438
-0.18080217 -0.07231461 0.2410407 0.07967624 0.07335797 0.04903462 0.1043794 0.059381243
-0.15407565 0.14148079 0.0064559076 -0.051618177 -0.101508185 -0.14940205 0.10898499 0.20664348
0.6184965 0.098223045 0.48658574 -0.021345505 0.6211482 0.12636335 0.313214 0.013753531
0.45489505 0.02870991 0.69054717 -0.49593312 0.57321036 0.02336945 0.6874132 0.21367992
0.39535847 0.47871476 0.18542743 0.3926652 0.55800676 0.15242767 0.4444997 -0.05770129
0.18031828 0.53042424 0.19589245 0.20817997 0.052624978 0.43768814 0.3235462 0.27543932
-1.226754 0.20607327 0.12969504 0.095651075 -1.2310066 0.20772232 0.23805197 -0.03276174
-0.4535852 0.26696676 -0.74541634 0.47578722 -0.98870903 0.06321169 -1.1574112 0.039186757
-0.1640813 -0.9203173 0.0019720788 -0.58999765 -0.5241475 0.09580432 -0.51977855 -0.04928977
-0.025703646 -1.1836482 -0.026369702 -0.16526817 0.036524534 -0.6875485 -0.425993 -0.05059572
0.47404465 0.21284612 0.06733294 0.21840179 0.5698202 0.12622859 0.24315317 0.14778443
0.3346814 0.2586393 0.49247247 -0.511279 0.57799095 0.15865234 0.67877114 0.29468215
0.20673569 0.4832416 0.35558382 0.4189698 0.44411707 0.29832134 0.46228993 0.20245564
0.35122383 0.4308772 0.24054544 0.19474769 0.1597075 0.2361164 0.19830243 0.45689815
0.5672496 0.20668688 0.1526763 0.0775204 0.6978317 0.17309894 0.09553075 -0.13449222
0.21550725 0.070023 0.562354 -0.42598724 0.7441367 -0.2309941 0.71628374 0.35676786
0.42437956 0.43543094 0.060115773 0.37110308 0.41675106 -0.040888805 0.4950275 -0.0022506705
0.13528565 0.578239 0.12709339 0.15696253 0.056118015 0.57979786 0.27538404 0.21960908
-0.050214883 -0.050926007 -0.019348724 -0.12644963 -0.039664067 -0.013105166 -0.074706875 -0.0046868077
0.25452343 -0.024526663 -0.018474447 -0.074161746 0.12027605 -0.019492058 0.0031488289 0.043241862
-0.10410261 0.17840655 0.075303204 0.12160649 -0.18077354 0.024623072 0.04922265 -0.004914939
-0.1709109 -0.010282533 -0.124653235 -0.20072101 -0.01500465 -0.19149809 -0.2099533 -0.14464177
0.5508293 0.15296282 0.32925788 0.054406203 0.57684803 0.23147477 0.12731983 0.04401511
0.4552128 0.22498481 0.46220013 -0.35390702 0.5358872 0.06830506 0.62713337 0.34221616
0.2642552 0.55187416 0.44622567 0.7592616 0.40484026 -0.06837057 0.31382668 0.03342241
0.2727235 0.5701152 0.16294608 0.035242952 0.24426778 0.32475504 0.36373255 0.33307025
00000000: e4df 1f3f 4231 be3d 2fa2 983e d816 01bc
00000010: 7483 c33e b969 7cbd 4e2c ac3d 15d1 37be
00000020: aed8 873e 79a5 f03d 328f 0a3f 45d6 81be
00000030: 0527 2f3f 1c3d dbbb 620a 003f 69be 903e
00000040: 6ac6 8e3e 8b6a ea3e 99ff ce3d 1fac cb3e
00000050: 5eda 253e 4e3e 5bbd 9c2f 9e3e 3ef7 4fbe
00000060: d85f a13e 16e7 b43e 9f8f de3c e336 1b3e
00000070: 8583 04bd 18cf b23e 4529 e83d b279 903e
00000080: 1058 aebc 5093 bbbd a50d 9fbe 8aec 653b
00000090: 86c7 32bd d4d6 a3bd bbfb a63d 7af3 2c3d
000000a0: 8c25 c7bd 2876 90be 6a8f 593e 0bf1 4a3e
000000b0: 0772 03bd 08de f83d 67c9 cfbd e054 7cbd
000000c0: 3424 39be af19 94bd 60d3 763e 4c2d a33d
000000d0: b43c 963d 87d8 483d dec4 d53d bf39 733d
000000e0: 02c6 1dbe 57e0 103e 148c d33b 956d 53bd
000000f0: 86e3 cfbd dafc 18be 8633 df3d 599a 533e
00000100: c955 1e3f 2a29 c93d c421 f93e c5dc aebc
00000110: 9203 1f3f 6565 013e 965d a03e 7d56 613c
00000120: 01e8 e83e 0c31 eb3c b3c7 303f f2ea fdbe
00000130: eabd 123f 4a71 bf3c 50fa 2f3f e9ce 5a3e
00000140: 6d6c ca3e 1a1a f53e b0e0 3d3e 6a0b c93e
00000150: 88d9 0e3f 0016 1c3e 7795 e33e 3058 6cbd
00000160: 5ba5 383e e2c9 073f 0898 483e 212d 553e
00000170: 4a8d 573d a918 e03e d9a7 a53e 6206 8d3e
00000180: 4606 9dbf df04 533e c7ce 043e b6e4 c33d
00000190: a091 9dbf 29b5 543e e5c3 733e 2d31 06bd
000001a0: 523c e8be deaf 883e 9bd3 3ebf 629a f33e
000001b0: 091c 7dbf 2175 813d 0d26 94bf 4b82 203d
000001c0: ee04 28be ea99 6bbf fe3d 013b 160a 17bf
000001d0: 882e 06bf 0e35 c43d 3510 05bf 12e4 49bd
000001e0: 7490 d2bc c981 97bf 4605 d8bc 0f3c 29be
000001f0: c09a 153d 2e03 30bf c11b dabe 753d 4fbd
00000200: fbb5 f23e 55f4 593e dae5 893d b8a4 5f3e
00000210: bddf 113f 1142 013e 25fd 783e cd54 173e
00000220: 5c5b ab3e 5f6c 843e 5a25 fc3e 2ee3 02bf
00000230: 37f7 133f c275 223e f2c3 2d3f 94e0 963e
00000240: 85b2 533e 716b f73e 150f b63e 3683 d63e
00000250: 5063 e33e 93bd 983e 44b1 ec3e 8850 4f3e
00000260: 9cd3 b33e f09b dc3e 8b51 763e f06b 473e
00000270: 5d8a 233e 7fc8 713e cb0f 4b3e 8eee e93e
00000280: 4537 113f baa5 533e 2d57 1c3e 04c3 9e3d
00000290: 19a5 323f d940 313e a0a5 c33d 54b8 09be
000002a0: efad 5c3e 3868 8f3d 6ff6 0f3f 001b dabe
000002b0: be7f 3e3f b889 6cbe 5f5e 373f 47aa b63e
000002c0: 4748 d93e cef0 de3e f53b 763d 3901 be3e
000002d0: 6560 d53e 057b 27bd 3f74 fd3e fc7f 13bb
000002e0: 5288 0a3e 7907 143f c524 023e c9ba 203e
000002f0: 01dc 653d a26d 143f 23ff 8c3e 34e1 603e
00000300: 1fae 4dbd ca97 50bd 3781 9ebc 037c 01be
00000310: ca76 22bd 0db7 56bc ebff 98bd cb93 99bb
00000320: e550 823e 24ec c8bc b957 97bc 1de2 97bd
00000330: 4a53 f63d cfad 9fbc 955c 4e3b 611e 313d
00000340: c033 d5bd 35b0 363e 9138 9a3d d30c f93d
00000350: b31c 39be 53b6 c93c b09d 493d 7f0d a1bb
00000360: 4403 2fbe 1278 28bc 324a ffbd cf89 4dbe
00000370: 10d6 75bc 1318 44be fffd 56be f91c 14be
00000380: 2603 0d3f 49a2 1c3e 7d94 a83e 0ad9 5e3d
00000390: 50ac 133f b907 6d3e 2160 023e 3049 343d
000003a0: a711 e93e 6b62 663e 7fa5 ec3e 4d33 b5be
000003b0: e72f 093f 86e3 8b3d d08b 203f f536 af3e
000003c0: 754c 873e a047 0d3f b177 e43e f85e 423f
000003d0: 3947 cf3e df05 8cbd e4ad a03e f0e5 083d
000003e0: 6aa2 8b3e 12f3 113f 56db 263e ea5a 103d
000003f0: 5521 7a3e 4b46 a63e 273b ba3e 2f88 aa3e

fc2_c.bias f4 [32]
0.4469604 -0.020203004 0.3594936 -0.50711375 0.3571842 0.41040125 0.0 0.3561951
0.39259842 0.37027785 -0.012720464 -0.02215424 -0.016359165 0.0 -0.021614643 -0.67055315
0.39713612 -0.009559604 -0.71229506 0.3246956 -0.8046168 0.40279487 0.4009465 -0.016917612
0.3324216 -0.02501336 0.32575577 -0.023817655 0.36605301 0.40797392 0.43485868 0.31416753
00000000: fed7 e43e c580 a5bc 8c0f b83e 35d2 01bf
00000010: d9e0 b63e 1d20 d23e 0000 0000 345f b63e
00000020: a902 c93e 0f95 bd3e 7e69 50bc cf7c b5bc
00000030: a803 86bc 0000 0000 3111 b1bc 5fa9 2bbf
00000040: 6d55 cb3e e39f 1cbc f858 36bf 803e a63e
00000050: 5efb 4dbf 213b ce3e dc48 cd3e ce96 8abc
00000060: 2a33 aa3e d1e8 ccbc 76c9 a63e 3e1d c3bc
00000070: 4d6b bb3e f5e1 d03e cca5 de3e 91da a03e

fc3_c.weight f4 [1, 32]
0.40386596 -0.36215913 0.55712944 -1.2032174 0.4631598 0.4706228 0.044525247 0.46359646
0.44566837 0.46025935 -0.06246803 -0.04006598 -0.012694174 0.28053743 -0.3508876 -1.387661
0.412816 -0.023343727 -1.0717461 0.5536499 -1.5672601 0.41697383 0.46100223 -0.06334675
0.59118146 -0.038088657 0.53309083 -0.061854042 0.41691348 0.43008164 0.43092653 0.77096003
00000000: 85c7 ce3e ec6c b9be 09a0 0e3f 0703 9abf
00000010: 4823 ed3e 79f5 f03e 1b60 363d 845c ed3e
00000020: a52e e43e 1da7 eb3e 7ade 7fbd 3a1c 24bd
00000030: 3afb 4fbc 9aa2 8f3e 8aa7 b3be e09e b1bf
00000040: 9e5c d33e 583b bfbc fa2e 89bf 00bc 0d3f
00000050: fb9b c8bf 987d d53e 7c08 ec3e f1bb 81bd
00000060: ab57 173f da02 1cbd a478 083f aa5a 7dbd
00000070: af75 d53e a933 dc3e 67a2 dc3e a35d 453f
